checkpoints/model_dqn_64_goal.pt (torch_old, 28405 bytes, 6 tensors)

fc1.weight f4 [64, 37]
0	0x3dfa222d	0.1221355
1	0x3c792faa	0.015209118
2	0xbdaa9dec	-0.083309025
3	0xbe662252	-0.2247403
4	0xbeafaa83	-0.34309778
5	0x3e04ebbf	0.12980555
6	0xbc916d72	-0.017752383
7	0x3ddb9166	0.10721092
8	0x3d4b53d1	0.04964048
9	0x3e49ecd8	0.19719255
10	0x3ddecef6	0.108793184
11	0xbe52f213	-0.20600156
12	0xbdb59c00	-0.08867645
13	0xbdce03cc	-0.10059318
14	0xbe47fdcc	-0.1953041
15	0x3c8dfe3b	0.01733314
16	0x3d58a7e0	0.052894473
17	0x3e12380c	0.14279193
18	0xbc5a6a14	-0.013330955
19	0x3db6667f	0.08906268
20	0x3d52782a	0.05138413
21	0x3e854a46	0.2603323
22	0xbbe35f1e	-0.006938829
23	0x3be992d4	0.007128099
24	0x3e208a42	0.15677741
25	0x3d9b70ff	0.07589912
26	0x3db0ec1a	0.08638783
27	0xbd25c831	-0.04047412
28	0xbdb50b82	-0.088400856
29	0xbe023d02	-0.12718585
30	0x3e486bbf	0.19572352
31	0x3cb8e120	0.022568285
32	0xbe1ea4d0	-0.15492558
33	0xbe87a4cf	-0.26492926
34	0xbed854d2	-0.42252213
35	0xbdb10a89	-0.086445875
36	0xbc082af6	-0.008311024
37	0x3e552a2d	0.2081687
38	0x3d95cdc0	0.07314634
39	0x3c949a3d	0.018139953
40	0x3d8f8193	0.07007136
41	0xbdf7c932	-0.12098922
42	0x3e450ef6	0.19243988
43	0xbe3f8360	-0.1870246
44	0xbe92af5b	-0.2864941
45	0xbe844aae	-0.25838226
46	0xbe7b20a8	-0.24524176
47	0x3d8813a8	0.06644374
48	0x3b9ecfef	0.004846565
49	0x3d278b9d	0.04090463
50	0x3e1ee75b	0.15517943
51	0x3e2d280a	0.16909805
52	0x3e56fd88	0.20995152
53	0xbccbb645	-0.024867186
54	0xbd741c75	-0.05959745
55	0xbd07fb1f	-0.033198472
56	0xbd8f2505	-0.06989483
57	0x3c714b20	0.014727384
58	0xbe088beb	-0.13334624
59	0xbdd76928	-0.10518104
60	0x3d505424	0.050861493
61	0x3e109dd6	0.1412271
62	0x3dd481c4	0.10376313
63	0xbddcfc00	-0.10790253
64	0xbd98be8b	-0.07458218
65	0xbe10f79b	-0.14156954
66	0xbe91cca4	-0.2847644
67	0x3dda0fa8	0.106475174
68	0x3bc8a17e	0.006122767
69	0x3e41a876	0.18911919
70	0xbd0dff77	-0.03466746
71	0xbc3ade12	-0.011405485
72	0x3dcd9dc6	0.100398585
73	0x3cf6b4bb	0.030115476
74	0x3e8e6b89	0.27816418
75	0x3dec7c49	0.11547143
76	0xbbe57173	-0.0070020496
77	0xbbd35fab	-0.0064506135
78	0xbf442d64	-0.7663176
79	0xbe101c3e	-0.14073274
80	0xbe1ed8e0	-0.15512419
81	0x3ea603d9	0.3242481
82	0x3e5ac31b	0.2136349
83	0xbe5be38e	-0.21473524
84	0xbc9567c9	-0.018237965
85	0x3dafaab1	0.08577479
86	0x3d957ee9	0.07299597
87	0xbe6e370f	-0.2326319
88	0x3dc485a0	0.095957994
89	0xbe7d0b90	-0.24711442
90	0x3da2cfa6	0.07949762
91	0x3eaf603a	0.34253103
92	0x3d8093be	0.062781796
93	0x3e8730b3	0.26404342
94	0xbdcf779b	-0.10130235
95	0xbc237a32	-0.009977864
96	0x3d85c2f5	0.06531326
97	0x3d5d4329	0.054019127
98	0xbcbf6e84	-0.023368128
99	0xbc081d4f	-0.008307769
100	0x3e79c053	0.24389772
101	0x3dff48cd	0.124650575
102	0xbd123f24	-0.035704747
103	0x3e138b9c	0.14408726
104	0xbe0f1b4e	-0.1397526
105	0x3d1c5a27	0.038171913
106	0xbc1713f8	-0.0092210695
107	0xbe8aadfc	-0.27085865
108	0xbd8f90da	-0.0701005
109	0x3d614d34	0.055005267
110	0xbd24c977	-0.040231194
111	0x3de1b325	0.11020497
112	0x3e091eac	0.13390607
113	0x3dd2d7dc	0.10295078
114	0xbcaede72	-0.021346305
115	0xbde45473	-0.1114892
116	0x386e5760	5.6824996e-05
117	0x3c705116	0.01466777
118	0x3cbe6645	0.023242125
119	0x3d8e7949	0.06956727
120	0x3c6996d3	0.014257151
121	0x3e9ea88e	0.30987972
122	0xbf01cb65	-0.5070098
123	0xbe371157	-0.17877708
124	0xbe8cf041	-0.2752705
125	0xbf9fe2e8	-1.2491121
126	0xbd9b91b4	-0.0759615
127	0xbbaf339a	-0.0053467276
128	0xbc2950bd	-0.010334191
129	0xbe1d58b3	-0.15365867
130	0xbd2c0f0a	-0.04200653
131	0x3cb4a175	0.022049645
132	0x3dd16a25	0.102253236
133	0x3dd56663	0.10419919
134	0xbca84278	-0.020539507
135	0xbe05610a	-0.13025299
136	0x3db175c6	0.086650416
137	0xbc84c78e	-0.016208436
138	0x3d98be96	0.074582264
139	0x3d0c704b	0.03428678
140	0x3d4b5f59	0.049651477
141	0x3d8eeee0	0.069791555
142	0x3db83642	0.08994724
143	0x3e015134	0.12628633
144	0x3dc5fd61	0.09667469
145	0xbd65d741	-0.056113485
146	0x3da7799b	0.08177491
147	0xbc33c697	-0.0109726405
148	0xbcc54565	-0.024080941
149	0xbe69582b	-0.2278754
150	0xbe76c708	-0.24099362
151	0xbdb8ba15	-0.09019867
152	0xbe43d44b	-0.19123952
153	0x3e4dd711	0.20101573
154	0xbd5dc628	-0.054144055
155	0xbf02a0ef	-0.51026815
156	0xbeef1859	-0.46698263
157	0xbf2c9dd8	-0.6742835
158	0xbc09470b	-0.008378754
159	0xbdd74ade	-0.10512327
160	0xbd9d22ef	-0.07672679
161	0xbe23a5a2	-0.15981153
162	0xbe76843b	-0.2407388
163	0xbe6af0b6	-0.22943386
164	0xbbbc2bb0	-0.0057425126
165	0xbe5a41ec	-0.2131421
166	0x3da88810	0.08229077
167	0x3bf738d6	0.007544617
168	0xbd40abe9	-0.047038946
169	0xbe85c499	-0.26126555
170	0x3ca2bdb7	0.019865854
171	0xbc86d2f5	-0.016458014
172	0x3c3bb530	0.011456773
173	0x3d97106f	0.07376181
174	0x3d984011	0.07434095
175	0xbe47f832	-0.19528273
176	0xbea900b5	-0.33008352
177	0xbdffa957	-0.12483471
178	0xbbbf24f1	-0.005833261
179	0xbebac637	-0.3647935
180	0x3db6d3a9	0.0892709
181	0x3b32f61c	0.0027307337
182	0x3db14782	0.08656217
183	0xbd847eea	-0.064695194
184	0x3d02eaac	0.03196208
185	0x3b3eb6a1	0.0029100555
186	0xbc8d08d6	-0.017216127
187	0x3d1db6b9	0.038504336
188	0xbe5ab799	-0.213591
189	0x3e0b384a	0.13595691
190	0x3e76a58f	0.24086593
191	0xbd3bac4c	-0.045818612
192	0xbeff3e87	-0.49852392
193	0xbe98ffd0	-0.2988267
194	0xbf94725f	-1.1597403
195	0xbd28acdc	-0.041180477
196	0xbe0bf417	-0.13667332
197	0xbb431dd4	-0.0029772418
198	0xbe05c7c7	-0.1306449
199	0xbddc94f2	-0.107705966
200	0xbaa639ff	-0.0012682079
201	0x3cca4de9	0.024695354
202	0xbdc46fb0	-0.09591615
203	0xbd21ffa8	-0.039550453
204	0xbe1c2186	-0.15247163
205	0x3d457df9	0.04821584
206	0x3d8a7160	0.06759906
207	0x3db1a7e8	0.08674604
208	0xbcc731f0	-0.024315804
209	0xbd0bd099	-0.03413448
210	0xbc6b4f19	-0.01436212
211	0xbe33ce88	-0.17559254
212	0x3d9e585a	0.077316955
213	0xbce84788	-0.028354421
214	0xbb69a770	-0.003565278
215	0x3d70890f	0.05872446
216	0xbe6977aa	-0.22799554
217	0xbd99e919	-0.07515163
218	0x3d87f664	0.06638792
219	0xbe185801	-0.14877321
220	0xbd4a8203	-0.049440395
221	0x3d4bc05c	0.049743995
222	0xbd31f94d	-0.043450642
223	0xbd06475f	-0.03278291
224	0xbe419036	-0.18902668
225	0x3e0c924c	0.13727683
226	0xbd7690fb	-0.060196858
227	0xbe0cfe58	-0.137689
228	0xbe2dc62c	-0.16970128
229	0x3d0650db	0.032791954
230	0xbe1bc04b	-0.15210073
231	0x3dee3547	0.116312556
232	0xbe529a7f	-0.20566748
233	0x3e1bf295	0.15229256
234	0x3d335d8d	0.04379039
235	0xbbb4a8e3	-0.005513297
236	0xbd9e59e4	-0.07731989
237	0x3c7fc8e8	0.015611865
238	0xbe02498b	-0.12723367
239	0xbe97b84a	-0.2963279
240	0x3d9a3355	0.07529322
241	0x3d6a5cb2	0.057217307
242	0xbd81943b	-0.06327101
243	0xbe149dfb	-0.1451339
244	0x3e0c06fc	0.1367454
245	0xbe91bf5c	-0.28466308
246	0x3d97ce6d	0.074124195
247	0xbead6164	-0.33863366
248	0xbda9e3d2	-0.082954064
249	0xbe5d793b	-0.21628277
250	0x3e1a6d09	0.15080656
251	0xbdbb78b3	-0.09153881
252	0x3e1ddef9	0.15417089
253	0xbe9f1f2c	-0.3107847
254	0xbd788247	-0.060671117
255	0xbd1663de	-0.036716335

fc1.bias f4 [64]
0	0x3e446493	0.19178991
1	0x3ca4789c	0.020077042
2	0xbdb13719	-0.08653087
3	0xbd33c9f4	-0.04389377
4	0x3dde047d	0.108407
5	0xbd802950	-0.0625788
6	0xbe1cbaf9	-0.153057
7	0x3d440256	0.04785379
8	0x3cb6380b	0.02224352
9	0xbdda4d4c	-0.106592745
10	0x3e222ecf	0.15838169
11	0x3e5e5855	0.21713383
12	0x3dda7c15	0.10668198
13	0x3dde5141	0.10855342
14	0xbd638cd7	-0.055554237
15	0xbc84b566	-0.016199779
16	0x3df6ec8f	0.12056839
17	0xbdd1d2dd	-0.10245297
18	0x3c403eca	0.01173372
19	0xbdf4a47c	-0.119454354
20	0xbe12cec5	-0.14336689
21	0x3dc5835f	0.09644198
22	0xbc1eb8dc	-0.009687629
23	0xbe02f54a	-0.12788883
24	0xbde59aa0	-0.11211133
25	0x3e33d937	0.1756333
26	0x3c26af39	0.010173612
27	0xbe1f366f	-0.15548109
28	0x3e2d007b	0.16894715
29	0x3ded6f30	0.11593473
30	0x3d2e8433	0.042606544
31	0xbe2f4314	-0.17115432
32	0x3db2d8b3	0.08732738
33	0xbd9d075a	-0.07667418
34	0xbe137aa8	-0.14402258
35	0x3d821354	0.06351343
36	0xbd877590	-0.0661422
37	0x3cf6e8da	0.03014033
38	0x3dbfed1c	0.09371397
39	0xbdcabba4	-0.09899071
40	0xbd9c1bb9	-0.07622475
41	0xbda5f532	-0.08103408
42	0xbe0d67e5	-0.13809164
43	0x3e140b3c	0.1445741
44	0x3d244652	0.040106125
45	0xbd82dfea	-0.063903645
46	0x3d2f9857	0.042869892
47	0xbe34fa2e	-0.17673561
48	0xbe23229d	-0.15931173
49	0x3cfa88b5	0.030582765
50	0xbe0aed38	-0.13567054
51	0xbc3a1133	-0.01135664
52	0xba487d45	-0.0007648061
53	0x3b8ce95c	0.0043002795
54	0xbe2df9ba	-0.16989794
55	0xbb4f43f1	-0.003162619
56	0x3db48c76	0.08815853
57	0xbd43e0bb	-0.04782174
58	0xbd163231	-0.03666896
59	0xbd8e92a0	-0.0696156
60	0x3d226705	0.03964903
61	0x3ccece3c	0.025244825
62	0x3d7139db	0.058893066
63	0x3d8db468	0.069191754

fc2.weight f4 [64, 64]
0	0xbd5af9f1	-0.05346102
1	0x3d4f8cb0	0.05067128
2	0xbe82ff8d	-0.25585595
3	0x3e550d99	0.20805968
4	0x3d118f78	0.035537213
5	0x3d1a7835	0.037712295
6	0xbd98c369	-0.074591465
7	0x3c60f88e	0.013731135
8	0xbe4859e0	-0.19565535
9	0x3cf1d1f0	0.029519051
10	0x3dcf772a	0.101301506
11	0xbe149c28	-0.14512694
12	0xbded3bab	-0.115836464
13	0x3e50964a	0.2036983
14	0xbe5b0ce8	-0.21391642
15	0xbe0833d7	-0.13301025
16	0xbe09b1cb	-0.13446729
17	0x3c8a1943	0.016857749
18	0xbd4428c7	-0.04789045
19	0xbd171ae9	-0.036890898
20	0x3e8e56ad	0.27800503
21	0x3e49b661	0.19698478
22	0x3c96e955	0.018421808
23	0xbd194cb4	-0.037426665
24	0xbc7bd8ca	-0.015371511
25	0x3d647312	0.055773802
26	0x3dfae4ff	0.12250709
27	0xbb0e3254	-0.0021697478
28	0xbdbb9ea2	-0.09161116
29	0x3cf6eced	0.030142272
30	0x3e39d9d7	0.18149506
31	0xbdb7af65	-0.08969001
32	0x3d976bdb	0.07393619
33	0x3dabde84	0.08392051
34	0xbcebe6b5	-0.028796533
35	0x3e05e1c7	0.13074408
36	0xbe1c4e0d	-0.15264149
37	0x3dbcd6a7	0.09220629
38	0x3e2b57c4	0.16732699
39	0xbdde4d95	-0.10854641
40	0x3d695233	0.056963157
41	0xbe2a5f43	-0.16637902
42	0xbdbb9549	-0.09159333
43	0xbe6895ab	-0.22713344
44	0x3e3f017c	0.1865291
45	0x3dd0aad8	0.10188836
46	0xbee0474d	-0.43804398
47	0x3b264e95	0.0025376428
48	0xbdb94d8e	-0.090479955
49	0xbe12c366	-0.14332351
50	0x3dbd100f	0.092315786
51	0x3c42dae1	0.011893005
52	0xbe937577	-0.28800556
53	0xbd8fbc07	-0.07018285
54	0xbde6568a	-0.11246975
55	0x3b7520fd	0.0037403696
56	0xbe1ab2bd	-0.15107246
57	0xbd28e698	-0.041235536
58	0xbd777568	-0.0604147
59	0x3cbe30e2	0.023216669
60	0xbdfd04ad	-0.123544075
61	0x3df2535b	0.11832305
62	0xbe063527	-0.13106214
63	0xbb08a2bd	-0.0020848953
64	0xbdd3beca	-0.103391245
65	0x3df5030e	0.11963473
66	0xbea1ab31	-0.3157592
67	0x3e24acae	0.16081497
68	0x3e28f2e9	0.16498913
69	0x3e24651f	0.160542
70	0x3e162456	0.14662299
71	0xbd18c047	-0.037292745
72	0x3b145d57	0.0022638643
73	0xbdf1d052	-0.11807312
74	0xbc875da3	-0.016524142
75	0x3e4aaf1d	0.19793363
76	0xbe5cba3c	-0.21555418
77	0x3da131eb	0.07870849
78	0xbdbebfdd	-0.09313939
79	0xbc3e842d	-0.011628193
80	0x3d2baa94	0.041910723
81	0x3e2ddc06	0.16978464
82	0xbe45d47d	-0.19319339
83	0xbe4526bf	-0.19253062
84	0x3e010c17	0.12602268
85	0xbe6853fe	-0.2268829
86	0x3e3d0333	0.18458252
87	0xbe4cf01f	-0.20013474
88	0x3e5d2808	0.21597302
89	0xbd6198db	-0.055077415
90	0xbdadb4d2	-0.08481754
91	0xbe23ad8e	-0.15984175
92	0x3def9ad6	0.116994545
93	0xbda10e3e	-0.078640446
94	0xbb3129cd	-0.0027032972
95	0xbe6be289	-0.23035635
96	0xbe84ee01	-0.25962833
97	0xbe827449	-0.25479344
98	0xbd849655	-0.06473986
99	0xbeb9c835	-0.36285558
100	0xbe05b805	-0.13058479
101	0x3b2d21a8	0.0026417766
102	0x3e0fdc54	0.14048892
103	0xbe75008f	-0.23925994
104	0xbe44c136	-0.19214329
105	0x3df1b913	0.11802878
106	0x3e68c07d	0.22729678
107	0xbd4a5544	-0.049397722
108	0xbe2cdf6e	-0.16882107
109	0xbda32fe3	-0.07968118
110	0xbdbbe201	-0.09173966
111	0xbd53320e	-0.051561408
112	0xbdc5250c	-0.09626207
113	0x3d944a78	0.07240766
114	0xbcdeb0d2	-0.027183924
115	0x3e2546d9	0.16140307
116	0xbd98bfbf	-0.07458448
117	0xbe0a15e5	-0.13484915
118	0xbd4f7f24	-0.05065836
119	0xbb997fc2	-0.0046844194
120	0xbea94286	-0.33058566
121	0xbd07f8cd	-0.03319626
122	0x3eaff2a9	0.34364823
123	0x3d56b962	0.05242289
124	0xbe6e06d3	-0.2324479
125	0xbdbbb528	-0.09165412
126	0xbd904982	-0.070452705
127	0xbe32f584	-0.1747647
128	0xbd2a7058	-0.041611046
129	0xbe448548	-0.19191468
130	0xbd36970f	-0.044577654
131	0x3d07285e	0.03299748
132	0xbe765034	-0.24054033
133	0xbe1bdd7f	-0.15221213
134	0xbdd9ebf7	-0.1064071
135	0x3c92921c	0.017891936
136	0x3dad7ee2	0.084714666
137	0xbdd79108	-0.105257094
138	0x3dc7bdcf	0.09753
139	0xbe783d6b	-0.24242179
140	0x3d0b0290	0.03393799
141	0x3d31fcc4	0.043453947
142	0x3e07edb1	0.13274266
143	0xbe2884f0	-0.16456962
144	0xbdf9c0c2	-0.12194969
145	0x3d7b0148	0.06128052
146	0xbc292bd9	-0.0103253955
147	0xbe282ca1	-0.16423275
148	0xbe132ed0	-0.14373326
149	0x3e86b991	0.2631345
150	0xbe4e6ec7	-0.20159446
151	0x3dba5abf	0.0909934
152	0xbedbddec	-0.4294275
153	0x3d7d9b7d	0.061915863
154	0x3e1d9299	0.15387954
155	0x3d09dece	0.03365975
156	0xbe65ad73	-0.22429447
157	0x3e8b758a	0.27238113
158	0x3e5569f9	0.20841207
159	0x3bbb81a6	0.0057222424
160	0x3cb437a2	0.021999184
161	0x3b8819ef	0.004153482
162	0xbe07c31d	-0.13258024
163	0x3e1973aa	0.14985529
164	0x3e85b51a	0.26114732
165	0x3e0a5077	0.13507257
166	0x3e44f45f	0.19233845
167	0x3f27fae1	0.65617186
168	0x3ece34fa	0.40274793
169	0x3c65f8a4	0.014036331
170	0xbe5aee54	-0.21379977
171	0xbd88430b	-0.066534124
172	0xbc5e4c27	-0.013567961
173	0xbc4a29bb	-0.012339051
174	0x3d4d80df	0.05017173
175	0xbddb058b	-0.106944166
176	0xbc5f2a0f	-0.013620867
177	0xbe8f52fc	-0.27993
178	0x3dcfbd00	0.10143471
179	0xbe1028d3	-0.14078073
180	0xbd9a1c67	-0.075249486
181	0x3d91a3b7	0.07111304
182	0xbe3d40db	-0.18481772
183	0x3c00f6cd	0.007871342
184	0xbea3bbf4	-0.31979334
185	0xbde10418	-0.10987109
186	0xbe8529f2	-0.26008564
187	0x3e23bd1d	0.1599011
188	0xbdd52215	-0.10406891
189	0xbdbb3047	-0.091400675
190	0xbd8dd635	-0.069256224
191	0xbe50a357	-0.20374809
192	0xbd82f108	-0.06393629
193	0xbd78a45c	-0.06070362
194	0x3e737ebc	0.23778814
195	0xbdf5a1d3	-0.11993756
196	0x3da84508	0.08216292
197	0x3d0a4dc3	0.033765566
198	0x3c8124db	0.015764644
199	0xbe36ccf5	-0.17851622
200	0xbe0542a9	-0.1301371
201	0xbf0a7a85	-0.540932
202	0xbda4a48e	-0.08039199
203	0x3e7f2cb0	0.2491939
204	0x3e11b29e	0.14228293
205	0x3e0adc58	0.13560617
206	0xbd6f1a20	-0.058374524
207	0xbddaa48e	-0.106759176
208	0xbe20b94d	-0.15695687
209	0xbe67721f	-0.22602127
210	0x3ba18dcb	0.004930233
211	0xbc8b7f99	-0.017028617
212	0x3d8696b5	0.06571714
213	0x3e3ac937	0.1824082
214	0x3de7f43d	0.11325882
215	0xbd5c7287	-0.05382016
216	0x3e0e15c4	0.1387549
217	0xbd52e6a5	-0.05148949
218	0x3e066626	0.13124904
219	0x3d986a2c	0.07442126
220	0x3d300d73	0.042981576
221	0xbd1ba7bc	-0.03800176
222	0xbe368cd0	-0.17827153
223	0xbdc162c0	-0.09442663
224	0xbc509cb9	-0.012732678
225	0xbe8374a8	-0.2567494
226	0xbd9f0fdf	-0.07766699
227	0x3e3fb177	0.18720041
228	0xbe1b4a06	-0.15164956
229	0x3dcf732f	0.101293914
230	0x3e1dd2f0	0.15412498
231	0xbbf02eec	-0.0073298123
232	0xbe3f3745	-0.18673427
233	0xbdd0fff0	-0.10205066
234	0x3da27169	0.079317875
235	0x3c9a21d4	0.018814959
236	0xbe172971	-0.14761902
237	0x3de6ca96	0.11269109
238	0xbca63812	-0.020290408
239	0xbe1502ff	-0.14551924
240	0xbe94e3b7	-0.29079983
241	0x3d1ba163	0.037995707
242	0xbe4f9e72	-0.20275286
243	0x3cb1e411	0.021715196
244	0x3cef7151	0.029228838
245	0x3ed86192	0.4226194
246	0xbc3635ba	-0.011121208
247	0xbd1bb505	-0.03801443
248	0xbd687332	-0.056750484
249	0xbe77721f	-0.24164627
250	0xbd08fc15	-0.03344353
251	0x3dd029ac	0.10164198
252	0xbd8d667c	-0.06904313
253	0x3d3bd4ce	0.045857243
254	0xbde95be3	-0.11394479
255	0xbd2123cf	-0.03934079

fc2.bias f4 [64]
0	0xbdbcd34f	-0.092199914
1	0xbd51c82c	-0.05121629
2	0x3dacafcd	0.08431969
3	0xbd2461a2	-0.040132172
4	0x3db0cb04	0.08632472
5	0xbe1b27f3	-0.15151958
6	0xbe0120ac	-0.1261012
7	0xbb8cf11d	-0.004301204
8	0x3e4dbe5a	0.20092145
9	0x3eaaf0be	0.33386797
10	0xbd882898	-0.06648368
11	0x3e49f316	0.19721636
12	0x3e33a1e9	0.17542233
13	0xbd0b35a6	-0.03398671
14	0xbd0110ae	-0.031510048
15	0xbd53b05d	-0.051681865
16	0xbcf4205c	-0.029800586
17	0xbddd11a0	-0.10794377
18	0xbdc71e6e	-0.09722601
19	0x3e0c8a79	0.13724698
20	0x3e745bc4	0.23863131
21	0x3ec1aa96	0.3782546
22	0xbe319e1f	-0.17345475
23	0xbd70686b	-0.05869333
24	0xbcb32cf7	-0.021872027
25	0xbddf1700	-0.10893059
26	0x3e08fb0c	0.13377017
27	0xbd9b3235	-0.075779356
28	0xbd23bf87	-0.039977577
29	0x3d842d49	0.0645395
30	0x3d6df6a7	0.058096554
31	0xbcc63556	-0.024195354
32	0xbaea2e4c	-0.0017866581
33	0x3e072c45	0.13200481
34	0x3b595570	0.0033162497
35	0xbc59bed6	-0.013290128
36	0xbd2f3a85	-0.042780418
37	0xbe7103e2	-0.23536637
38	0x3e8a2692	0.26982552
39	0x3cfd0b56	0.030889194
40	0xbdc0aa02	-0.094074264
41	0x3eac4c9d	0.336522
42	0x3e535ccd	0.2064087
43	0xbdf85858	-0.12126225
44	0x3c8e995e	0.017407116
45	0xbde9b833	-0.11412086
46	0x3b9c1cbe	0.0047641685
47	0xbdaa7db2	-0.08324756
48	0x3ddb8953	0.10719552
49	0xbde15c68	-0.11003953
50	0xbe16c12f	-0.14722131
51	0x3ea7c81d	0.32769862
52	0xbd94a49a	-0.07257958
53	0xbd851bcf	-0.06499445
54	0x3d1bb575	0.038014848
55	0xbdfd7da2	-0.12377478
56	0xbe1ab765	-0.15109022
57	0xbdd4f128	-0.103975594
58	0x3d33c871	0.043892328
59	0xba260c34	-0.0006334216
60	0x3d3f2ec7	0.04667547
61	0x3e20e90e	0.15713903
62	0xbbaa704c	-0.005201375
63	0xbe008d73	-0.12553959

fc3.weight f4 [4, 64]
0	0xbe0f2bc0	-0.13981533
1	0x3e3104d7	0.17287003
2	0x3ef3f7e6	0.4765007
3	0xbdd6c6d7	-0.104871444
4	0x3d0a8e9c	0.03382741
5	0xbcd7d22d	-0.026345337
6	0xbc33dd56	-0.010978064
7	0xbe9dcb5f	-0.30819222
8	0x3e15965a	0.14608136
9	0x3e03dbf1	0.1287687
10	0xbe0d92b1	-0.1382549
11	0x3e639ae8	0.22227061
12	0x3d859810	0.06523144
13	0xbe28e607	-0.16493998
14	0x3e22c520	0.1589551
15	0xbd1a3b3f	-0.037654158
16	0xbc87f0a2	-0.016594235
17	0xbd43a60a	-0.04776577
18	0x3c114b6e	0.0088680815
19	0x3e5c00c7	0.21484672
20	0x3da2569e	0.07926677
21	0x3dd61da4	0.10454872
22	0x3d16844a	0.036747254
23	0xbe09910f	-0.13434242
24	0x3e5f6897	0.21817242
25	0xbd5d6182	-0.05404807
26	0xbe63d182	-0.2224789
27	0xbe6de63b	-0.23232357
28	0x3e979dd8	0.29612613
29	0x3e0be48b	0.13661401
30	0xbeca64e6	-0.39530104
31	0x3e3357f3	0.17514019
32	0x3ec32357	0.381129
33	0x3e5b3a0d	0.21408863
34	0x3d755d3a	0.05990336
35	0xbda9577a	-0.08268638
36	0x3e59da17	0.21274601
37	0x3cd548ac	0.02603563
38	0x3df445f8	0.11927408
39	0x3e3473a4	0.17622238
40	0x3e7414c8	0.23836052
41	0x3e06de08	0.13170636
42	0x3c072fc3	0.008251133
43	0xbd6ceefc	-0.0578451
44	0x3ed4ed50	0.41587305
45	0x3c5a4166	0.013321256
46	0x3e0d31a6	0.1378847
47	0x3d4851bf	0.048906084
48	0x3bd79558	0.0065790825
49	0x3e118030	0.14209056
50	0xbea6bd6d	-0.32566395
51	0x3e34980a	0.17636123
52	0x3e3f1a5b	0.18662398
53	0x3cd5f5c5	0.026118169
54	0x3d833616	0.064068004
55	0x3da96666	0.08271484
56	0xbebdf0db	-0.3709782
57	0x3bc83606	0.0061099557
58	0x3e3a1da9	0.18175377
59	0x3e9901de	0.29884237
60	0x3cab1667	0.020884706
61	0x3e31427a	0.17310515
62	0x3e354938	0.17703712
63	0x3f062062	0.5239316
64	0x3d2d7c49	0.042354856
65	0x3e11529d	0.1419167
66	0x3ebd756b	0.37003645
67	0xbe52effe	-0.20599362
68	0x3e9e1799	0.3087738
69	0xbe3df07e	-0.18548772
70	0x3f1940e9	0.5986467
71	0xbeb5342b	-0.35391364
72	0x3b9575f1	0.004561179
73	0x3db7e708	0.089796126
74	0x3e101025	0.14068659
75	0x3e078e4b	0.13237874
76	0x3c1827c7	0.009286827
77	0x3e7e4516	0.24831042
78	0x3ee70ef7	0.45128605
79	0xbdefa198	-0.117007434
80	0xbdd52b59	-0.104086585
81	0xbe0db026	-0.13836727
82	0xbdb6f518	-0.08933467
83	0x3df0185e	0.11723398
84	0x3e38055c	0.17970794
85	0x3e1ce7aa	0.15322748
86	0xbea514f7	-0.32242557
87	0x3e16a533	0.14711456
88	0x3ea3edc9	0.32017353
89	0xbd78bfb7	-0.06072971
90	0xbd748d01	-0.059704784
91	0xbdc01c5b	-0.093804084
92	0x3e55e1e2	0.20886949
93	0x3dc682e2	0.09692933
94	0x3e307e4d	0.1723568
95	0x3e59cd1e	0.21269652
96	0x3e5c56c1	0.21517469
97	0x3dda18ea	0.10649283
98	0x3e5046a0	0.20339441
99	0xbd24c16f	-0.040223535
100	0x3d9b6286	0.07587151
101	0xbe816057	-0.25268814
102	0x3e01bc01	0.12669374
103	0x3dbd4633	0.09241905
104	0x3e710f65	0.23541029
105	0x3de38852	0.111099854
106	0x3db5f273	0.08884134
107	0x3dcaebc0	0.09908247
108	0x3e9ee8ea	0.31037074
109	0xbe3476c6	-0.17623433
110	0x3e1225e7	0.14272271
111	0xbe1e255e	-0.15443942
112	0x3c798a4c	0.015230726
113	0x3d838d06	0.064233825
114	0xbe984314	-0.29738677
115	0x3dfc7734	0.12327424
116	0x3eb4e7b8	0.35333037
117	0x3e9864c8	0.2976439
118	0x3d14995b	0.036279064
119	0x3e81a19e	0.25318617
120	0xbeab10b0	-0.3341117
121	0xbdaff593	-0.085917614
122	0x3e125605	0.14290626
123	0x3e97e297	0.29665062
124	0xbbc296f6	-0.005938406
125	0x3ca49da1	0.020094695
126	0xbe4d50f9	-0.2005042
127	0xbe3c7a95	-0.18406136
128	0xbebfdaf4	-0.37471735
129	0x3e5e64c0	0.2171812
130	0x3ef7f28c	0.48427236
131	0x3e1471f3	0.14496593
132	0x3eddd7d2	0.4332872
133	0xbe8ae152	-0.2712503
134	0x3d99b594	0.075053364
135	0xbd05e3e1	-0.032688025
136	0x3d2b8751	0.041877095
137	0x3dae97ba	0.08525033
138	0xbd68ed58	-0.056866974
139	0x3e393666	0.18087158
140	0x3def7562	0.11692311
141	0xbe63a2b1	-0.2223003
142	0xbd1e3922	-0.038628705
143	0x3e872675	0.26396528
144	0x3d00b19c	0.03141938
145	0xbe898cc2	-0.26865202
146	0xbd61c0a3	-0.055115353
147	0x3d88de3d	0.066830136
148	0x3d98b0c2	0.07455589
149	0x3e5f2724	0.21792275
150	0xbeb5682f	-0.35431048
151	0x3e0a3682	0.13497356
152	0x3ed0dc05	0.40792862
153	0xbd7df738	-0.062003344
154	0xbe1673a9	-0.14692558
155	0xbe86484a	-0.26227027
156	0x391fba5f	0.0001523285
157	0x3dd4549e	0.10367702
158	0xbd7e3818	-0.062065214
159	0xbc8bf7a3	-0.017085856
160	0x3ddb9f61	0.107237585
161	0x3d3c2495	0.045933325
162	0x3e41fed7	0.1894487
163	0x3ea16736	0.31524056
164	0x3e232d67	0.15935288
165	0xbebe0bad	-0.37118283
166	0x3dfb6cef	0.12276637
167	0x3e24d20e	0.16095755
168	0xbdb320c5	-0.08746485
169	0x3e1f2764	0.1554237
170	0x3e53d7ab	0.2068774
171	0x3d5d9b60	0.054103255
172	0x3e07483b	0.13211147
173	0xbe2fad28	-0.17155898
174	0x3e1199b7	0.14218794
175	0x3e578532	0.21046904
176	0x3e6e5515	0.23274644
177	0x3d333ac8	0.04375723
178	0xbc989066	-0.018623542
179	0x3e4f509a	0.20245591
180	0x3dc3405a	0.095337585
181	0x3e99d46d	0.3004488
182	0x3e28f463	0.16499476
183	0x3de237dd	0.11045811
184	0xbe60f782	-0.21969417
185	0xbd04b99f	-0.032403585
186	0x3d9eab42	0.077475086
187	0x3d2db252	0.042406388
188	0xbe121c40	-0.14268589
189	0x3dd48aef	0.10378062
190	0xbec30620	-0.3809061
191	0xbdc2de03	-0.095150016
192	0xbca69982	-0.02033687
193	0x3ebb80d6	0.36621732
194	0x3e4a3022	0.19744924
195	0xbdab803c	-0.08374068
196	0x3e62dde3	0.22154956
197	0xbe0e5615	-0.13900025
198	0x3e4cf366	0.20014724
199	0xbe3d6d99	-0.1849884
200	0x3d4906d1	0.049078766
201	0x3e36b9cb	0.17844312
202	0x3dffecf8	0.1249637
203	0xbcc5dbec	-0.024152718
204	0x3e013851	0.12619139
205	0x3ddbdc5f	0.10735392
206	0x3ed666f6	0.41875428
207	0xbe96ed2a	-0.29477817
208	0x3df07072	0.11740197
209	0xbe45e24c	-0.19324607
210	0x3d9580f1	0.07299984
211	0x3e34f1fc	0.17670435
212	0x3d6baabd	0.057535876
213	0x3e27e3e1	0.16395523
214	0xbe35c4d3	-0.17750864
215	0x3e46cb71	0.19413544
216	0x3e373bbc	0.1789388
217	0xbdc0d873	-0.094162844
218	0xbe09645b	-0.13417189
219	0x3ca31e19	0.019911813
220	0x3ece4e29	0.40294006
221	0xbe747c65	-0.23875578
222	0xbe914e8c	-0.2838024
223	0x3e108989	0.14114965
224	0x3e6d8174	0.23193914
225	0x3e7752c2	0.24152663
226	0x3c85d8b6	0.016338687
227	0xbeb72b37	-0.35775158
228	0xbd65a9e7	-0.056070235
229	0x3e67f9df	0.22653912
230	0x3e062a47	0.13102065
231	0x3e58659e	0.21132514
232	0x3e878e73	0.26475868
233	0x3e149810	0.14511132
234	0x3e461ca5	0.19346865
235	0xbe878c31	-0.26474145
236	0x3f16edad	0.58956414
237	0xbe53c2a4	-0.20679718
238	0x3df40c60	0.11916423
239	0x3d55a31d	0.05215751
240	0xbda8a83f	-0.082352154
241	0x3cdf2ec5	0.027243981
242	0xbdcb088d	-0.0991374
243	0x3e3e3d50	0.18578076
244	0xbd6b09b1	-0.05738229
245	0xbdbc392e	-0.09190594
246	0x3e9f689b	0.31134495
247	0x3ec63ac2	0.38716704
248	0xbe11ee33	-0.14251022
249	0xbe3625b6	-0.17787823
250	0xbcaa7683	-0.020808464
251	0x3e1679c6	0.1469489
252	0xbe52e146	-0.20593747
253	0x3ddcc700	0.10780144
254	0xbdfe8004	-0.12426761
255	0x3e3ab4f0	0.18233085

fc3.bias f4 [4]
0	0x3e726518	0.23671377
1	0x3e64f1f1	0.22357918
2	0x3d9d99c4	0.07695344
3	0x3de75ddc	0.11297199
