checkpoints/model_dqn_64.pt (torch_old, 28405 bytes, 6 tensors)

fc1.weight f4 [64, 37]
0	0xbe0f50bd	-0.13995643
1	0x3e044e6a	0.12920538
2	0xbe8c537e	-0.2740745
3	0xbee508b2	-0.44733196
4	0x3e93de54	0.2888056
5	0xbd0a049c	-0.033695802
6	0x3df0bc1b	0.11754628
7	0x3d5f330e	0.05449205
8	0xbe897d81	-0.26853564
9	0xbe1ddb17	-0.15415607
10	0x3d51aea5	0.051191945
11	0xbe5b716a	-0.21429983
12	0xbedaf7c5	-0.42767158
13	0xbd0d39d6	-0.034478985
14	0xbf177988	-0.59169817
15	0x3eaa8cd9	0.33310583
16	0xbed2cdb3	-0.4117256
17	0xbee7dcbd	-0.45285597
18	0x3e5d590d	0.21616001
19	0xbd8465b1	-0.064647086
20	0x3cd2a232	0.025712106
21	0x3e86297b	0.26203522
22	0xbf204ca0	-0.6261692
23	0xbd5cc5e1	-0.05389965
24	0xbd9f92fe	-0.077917084
25	0xbe1678a6	-0.14694461
26	0x39dd3b2d	0.00042196494
27	0x3d5f246b	0.05447809
28	0xbe9ddeb7	-0.3083398
29	0xbe1d1706	-0.15340814
30	0xbbfb16c3	-0.0076626255
31	0x3e22ddeb	0.15904967
32	0xbebb1fc9	-0.36547688
33	0xbee5dbae	-0.44894165
34	0xbe7d7a02	-0.24753574
35	0x3dcc9cb7	0.099908285
36	0xbcbe8029	-0.02325447
37	0x3db6c65a	0.08924551
38	0xbd8c67c0	-0.06855726
39	0x3bac304f	0.0052547823
40	0xbe028b2e	-0.12748405
41	0x3c7e1c9a	0.015509749
42	0xbea4ffe3	-0.32226476
43	0xbdc71e6b	-0.09722599
44	0x3e508178	0.20361888
45	0xbe5763f2	-0.2103422
46	0xbebb0d1f	-0.36533448
47	0xbcc00b4c	-0.023442887
48	0x3d94a71f	0.07258438
49	0xbeb29bb8	-0.3488443
50	0x3d1719a1	0.036889676
51	0x3f0971b5	0.5368913
52	0x3db17d41	0.086664684
53	0xbe3027ed	-0.1720273
54	0x3db24f2b	0.08706506
55	0xbe399b75	-0.18125708
56	0xbef210e4	-0.47278512
57	0xbe47e209	-0.1951982
58	0xbe0b1936	-0.13583836
59	0xbd8836ea	-0.06651099
60	0xbda05008	-0.07827765
61	0xbe955710	-0.29167986
62	0xbe0a4463	-0.1350265
63	0x3d372292	0.044710703
64	0xbe00c916	-0.12576708
65	0xbdbc156b	-0.09183773
66	0xbf1d4256	-0.61429346
67	0x3c64348c	0.013928544
68	0x3d88d259	0.06680746
69	0x3dcfb65b	0.101422034
70	0xbec4b0b6	-0.3841607
71	0xbec69e46	-0.38792628
72	0xbdef49d6	-0.11684005
73	0x3d575180	0.05256796
74	0xbead40a9	-0.33838394
75	0x3e3f4069	0.18676914
76	0x3ed8ef8e	0.42370266
77	0xbee54c46	-0.44784755
78	0xbc820a6c	-0.01587411
79	0xbf79a2fd	-0.97514325
80	0x3dcd5e40	0.100277424
81	0x3e32b865	0.17453153
82	0x3e0cd22b	0.13752048
83	0xbf3e3e93	-0.7431423
84	0x3e158379	0.14600934
85	0xbdbef299	-0.093236156
86	0xbe221568	-0.15828478
87	0x3e2465da	0.16054478
88	0xbce65fb4	-0.028121807
89	0xbd9fa369	-0.0779484
90	0x3d5f3679	0.05449531
91	0x3e7594dc	0.23982567
92	0xbdb98245	-0.0905805
93	0xbddd127b	-0.107945405
94	0xbe7d3b50	-0.24729657
95	0x3dbda44e	0.09259854
96	0xbda2eda1	-0.0795548
97	0x3c59e2e3	0.013298723
98	0xbe95e84e	-0.29278797
99	0xbf4f4ab6	-0.80973375
100	0x3e8ebc4b	0.2787803
101	0x3e3de93c	0.18546003
102	0xbdd5dc23	-0.10442378
103	0xbfa58830	-1.2932186
104	0xbf15b1e0	-0.5847454
105	0x3ab1a8a9	0.0013554293
106	0x3d173e01	0.036924366
107	0x3df89cda	0.12139292
108	0xbf22a4e0	-0.6353283
109	0xbb13457c	-0.0022471836
110	0x3a1d85f4	0.0006009035
111	0x3dee6228	0.116398156
112	0xbebf487f	-0.37359998
113	0xbc0c87cd	-0.008577299
114	0x3db2e687	0.08735376
115	0xbf92c621	-1.1466714
116	0xbda63799	-0.08116073
117	0xbeee78b3	-0.4657646
118	0x3ed37cfe	0.413063
119	0xbe3c939e	-0.18415686
120	0xbd73f177	-0.05955645
121	0x3eb098cf	0.34491584
122	0xbe8031e3	-0.2503806
123	0xbeccc5a3	-0.39994535
124	0xbf23e8fc	-0.6402738
125	0xbfde9c76	-1.7391498
126	0x3deeab50	0.11653769
127	0xbf2db3a0	-0.6785221
128	0xbd6d0599	-0.057866666
129	0xbf057c8e	-0.5214318
130	0xbf805be1	-1.0028039
131	0x3ceb9f03	0.028762346
132	0xbe51f65d	-0.20504136
133	0x3e4cee63	0.20012812
134	0xbe3ff258	-0.1874479
135	0xbebb1af3	-0.36543998
136	0x3e17e27d	0.14832492
137	0xbdc24399	-0.094855495
138	0x3d282c33	0.041057777
139	0xbd927337	-0.07150882
140	0xbe8a18ad	-0.2697195
141	0xbd768181	-0.0601821
142	0x3d8b846e	0.06812368
143	0xbe45a3cd	-0.19300766
144	0xbd9bc4b3	-0.07605877
145	0xbeba9895	-0.36444536
146	0x3d3bd8b0	0.045860946
147	0xbd4341c6	-0.04767015
148	0x3c7c5a82	0.015402438
149	0xbe5799cc	-0.21054763
150	0xbebc0103	-0.36719522
151	0xbe02d665	-0.12777098
152	0x3e13064a	0.14357868
153	0x3e67fb30	0.22654414
154	0xbd925a33	-0.071461104
155	0xbe89843f	-0.26858708
156	0xbea0c7c2	-0.31402403
157	0xbfa0b368	-1.255475
158	0xbe5bcd56	-0.21465048
159	0xbef09828	-0.46991086
160	0x3e239785	0.15975769
161	0xbc5f7bb9	-0.013640338
162	0xbeab1059	-0.3341091
163	0xbed0d0e7	-0.4078438
164	0x3e524cdb	0.2053713
165	0xbd63f681	-0.055655006
166	0xbdaf5baa	-0.085624054
167	0x3dd17c38	0.10228771
168	0xbe0f528f	-0.13996337
169	0xbe2cce53	-0.16875581
170	0x3e246e24	0.1605764
171	0xbd7870f1	-0.060654584
172	0xbf31e369	-0.69487625
173	0xbd8684fb	-0.06568333
174	0x3db2eacd	0.08736191
175	0x3e1a6d1d	0.15080686
176	0xbe0b7474	-0.13618642
177	0xbdd98394	-0.106208
178	0x3dee4112	0.11633505
179	0xbea2f15a	-0.31824762
180	0x3e046cac	0.1293208
181	0xbed1af3c	-0.40954006
182	0x3e732e93	0.23748235
183	0x3e2a6f55	0.16644032
184	0xbbed3a0e	-0.0072395867
185	0x3d9f06b1	0.07764948
186	0x3b972a21	0.0046131765
187	0x3d2a4af3	0.041575383
188	0x3d7f688a	0.062355556
189	0xbe245b4a	-0.16050449
190	0x3ec00fdc	0.375121
191	0xbe39dae8	-0.18149912
192	0x3dffc178	0.12488073
193	0xbf193195	-0.5984128
194	0xc012df5a	-2.2948823
195	0x3d2680d6	0.04065021
196	0x3d2e57a2	0.042564042
197	0x3cc5299a	0.024067689
198	0xbdc73f84	-0.097289115
199	0xbca8a022	-0.02058417
200	0x3b7e5d6a	0.0038813003
201	0x3dbe89cc	0.093036264
202	0x3daa2395	0.08307568
203	0xbc1de8c7	-0.009638018
204	0x3c374be9	0.011187532
205	0x3d7cc9f6	0.061716042
206	0x3e344936	0.17606053
207	0x3e4a10b3	0.19732933
208	0x3e0ff1cc	0.14057082
209	0x3c932218	0.017960593
210	0x3de7e634	0.11323205
211	0x3d072b5a	0.033000328
212	0xbcd4ce65	-0.025977323
213	0x3e534d74	0.20635015
214	0x3cbc928b	0.023019096
215	0xbc537750	-0.012906864
216	0x3d89343f	0.06699418
217	0x3ca13680	0.019679308
218	0x3e077c01	0.13230897
219	0x3de5c16d	0.11218534
220	0x3cfb200a	0.030654926
221	0x3b6ded7d	0.0036304884
222	0xbbb6d133	-0.0055791377
223	0x3e36d163	0.17853312
224	0xbdc7c19e	-0.097537264
225	0xbd48103a	-0.0488436
226	0xbe2e5a66	-0.17026672
227	0xbf3f5fea	-0.7475573
228	0x3e04ddcc	0.12975234
229	0x3e519429	0.20466675
230	0x3dc2d703	0.095136665
231	0xbeab11d2	-0.33412033
232	0x3e01eb5f	0.12687443
233	0x3e37347e	0.17891118
234	0xbdeb6477	-0.114937715
235	0x3d9f8c7d	0.07790468
236	0x3e247f14	0.16064101
237	0xbea6df9e	-0.3259248
238	0x3e1856e2	0.14876893
239	0x3e0181db	0.12647192
240	0x3c8a0cf3	0.016851878
241	0x3e59604b	0.21228139
242	0x3e2326a0	0.15932703
243	0x3e9874ee	0.2977671
244	0xbeb5ed27	-0.35532495
245	0xbe20a583	-0.15688138
246	0xbe8ab7e0	-0.2709341
247	0xbedac51b	-0.42728505
248	0x3e47dee0	0.19518614
249	0x3af80770	0.0018923115
250	0xbed4bedc	-0.41551864
251	0xbec785e2	-0.38969332
252	0x3e5f0dee	0.21782658
253	0xbbab924d	-0.0052359463
254	0x3b1b20e5	0.002367073
255	0x3dfc9bee	0.12334429

fc1.bias f4 [64]
0	0x3cf093dc	0.02936738
1	0xbdbe3ecb	-0.092893206
2	0xbd02362c	-0.031789944
3	0x3cb76fea	0.022392232
4	0x3e2fdba6	0.17173633
5	0x3d89360b	0.06699761
6	0xbdd14f28	-0.10220176
7	0x3c4b97a8	0.012426294
8	0x3cf695c7	0.030100716
9	0xbe5e8229	-0.2172934
10	0x3e8e9f39	0.27855852
11	0x3e816d67	0.2527878
12	0x3df44568	0.11927301
13	0xbd10c344	-0.03534247
14	0xbe89e63c	-0.26933467
15	0xbe0069c0	-0.1254034
16	0xbbd956e6	-0.0066326736
17	0xbcefd93e	-0.029278394
18	0x3cf7f0dc	0.030266218
19	0xbe7458ed	-0.23862047
20	0xbd7e45bf	-0.062078234
21	0xbd8c996c	-0.068652004
22	0x3e5c36fa	0.21505347
23	0xbe148744	-0.14504725
24	0xbe8a7d97	-0.27048942
25	0x3e348c97	0.17631756
26	0xbcd8b4dc	-0.026453428
27	0xbe00e32e	-0.12586662
28	0x3e57c44d	0.21070977
29	0x3d3b1f96	0.04568442
30	0xbd2c6937	-0.04209253
31	0xbd70c9fb	-0.058786374
32	0x3d879beb	0.06621536
33	0x3d28ed49	0.041241918
34	0xbe392566	-0.18080673
35	0x3d37e73d	0.04489826
36	0xbdbbb34b	-0.09165057
37	0xbe015258	-0.12629068
38	0xbd804f7a	-0.06265159
39	0xbe7a2b99	-0.24430694
40	0xbe88f637	-0.26750347
41	0x3daf0b42	0.08547069
42	0x3be92b36	0.007115747
43	0x3d8183a5	0.06323937
44	0xbdee9775	-0.11649982
45	0x3bec2322	0.0072063366
46	0x3d053f92	0.03253133
47	0xbea68bad	-0.3252844
48	0xbe72043e	-0.23634431
49	0x3dbfa548	0.09357697
50	0xbe3f9174	-0.1870783
51	0x3dfaf04e	0.12252866
52	0x3bb3b6a3	0.0054844185
53	0xbdc13986	-0.094348
54	0xbe69b039	-0.2282113
55	0xbddf285c	-0.1089637
56	0x3d70595e	0.058678977
57	0xbe0a4d81	-0.13506128
58	0xbd1aa0d6	-0.03775104
59	0xbe0b481e	-0.1360173
60	0x3caefc11	0.021360429
61	0x3d9a5e95	0.07537571
62	0xbd34e3a8	-0.044162422
63	0x3d7c9943	0.0616696

fc2.weight f4 [64, 64]
0	0x3d5538d5	0.052056152
1	0xbdf51ba4	-0.11968163
2	0xbe3a4efb	-0.18194191
3	0x3e12274f	0.14272808
4	0x3f0f3408	0.5593877
5	0xbe9e0621	-0.3086405
6	0xbeaf0024	-0.34179795
7	0x3eb0c3e9	0.34524468
8	0xbee0231c	-0.43776786
9	0xbd0ce681	-0.034399513
10	0x3cb3337a	0.021875132
11	0x3dbde769	0.092726536
12	0xbe3bbb1d	-0.18333097
13	0x3cc4bba0	0.024015248
14	0xbe5cde77	-0.21569239
15	0xbed5ff68	-0.41796422
16	0xbdfa8f37	-0.12234347
17	0xbe99f006	-0.30065936
18	0xbe8b86c7	-0.27251264
19	0xbe0d4ec6	-0.13799581
20	0xbf30b5fc	-0.69027686
21	0xbf1b74e4	-0.60725236
22	0x3dcad6d7	0.09904259
23	0xbef4df5b	-0.47826657
24	0xbea89fc3	-0.3293439
25	0xbd08b611	-0.033376757
26	0xbe1459d6	-0.14487395
27	0x3eb1983a	0.34686452
28	0xbe7979a5	-0.2436281
29	0xbeb113cf	-0.34585425
30	0x3ed4aaed	0.41536656
31	0xbe8bd290	-0.27309084
32	0xbe493f2f	-0.19653009
33	0x3efe002a	0.496095
34	0xbf4d7c21	-0.8026753
35	0xbdb134c9	-0.08652646
36	0xbeb78805	-0.35845962
37	0x3deb1428	0.11478454
38	0x3d60f7f1	0.054923955
39	0xbea724d4	-0.32645285
40	0xbf0d8f5d	-0.5529688
41	0xbe13c5c3	-0.14430909
42	0x3db1998f	0.08671867
43	0xbe6c8cfd	-0.23100658
44	0x3e617cbf	0.22020243
45	0x3e8fb406	0.28067034
46	0xbee5b99f	-0.4486818
47	0xbe8fe6a0	-0.2810564
48	0xbf0a8001	-0.5410157
49	0x3ee84ed9	0.45372656
50	0xbef9271f	-0.4866266
51	0xbe2e9ec4	-0.17052752
52	0xbf2b815b	-0.66994256
53	0xbe68444e	-0.22682306
54	0xbd09adbc	-0.03361295
55	0xbef9e052	-0.48803955
56	0xbf22e1d2	-0.63625824
57	0xbe7a7083	-0.24456982
58	0xbf07a5a6	-0.52987134
59	0xbf10511c	-0.56373763
60	0xbe25db24	-0.16196877
61	0xbe306686	-0.1722661
62	0xbe9bf02f	-0.30456683
63	0xbe839e4b	-0.25706705
64	0x3e839d82	0.25706106
65	0x3e940100	0.28907013
66	0xbe88fdb9	-0.26756075
67	0x3e3a9c6e	0.18223736
68	0x3e48ff4f	0.19628642
69	0x3e279882	0.16366771
70	0x3e27faf4	0.16404325
71	0xbe144792	-0.14480427
72	0xbe4c7c68	-0.19969332
73	0xbea39409	-0.3194888
74	0xbe33d0f7	-0.17560183
75	0x3ebd3d74	0.36960948
76	0xbe85256d	-0.26005116
77	0xbd6bc220	-0.05755818
78	0xbd431a5c	-0.04763256
79	0xbda6c5d5	-0.08143202
80	0x3e900625	0.28129688
81	0xbcc97efb	-0.024596682
82	0xbe96a643	-0.29423723
83	0x3e952b2d	0.29134503
84	0x3d505240	0.05085969
85	0xbd2d42b2	-0.042299934
86	0x3df326c2	0.11872627
87	0xbdaaae8e	-0.08334075
88	0x3d070d4f	0.032971676
89	0xbe46e5ff	-0.19423674
90	0xbdf5e54d	-0.12006626
91	0x3af6f275	0.0018840568
92	0x3ea2fe71	0.31834748
93	0xbdc33093	-0.09530749
94	0x3e156a18	0.14591253
95	0xbb297054	-0.0025854306
96	0xbdb79968	-0.08964807
97	0xbe78d5c5	-0.24300297
98	0xbd740487	-0.05957463
99	0xbeed873a	-0.46392232
100	0xbca512bf	-0.02015054
101	0x3e4ce5d6	0.2000955
102	0x3e12d5eb	0.14339416
103	0xbe50522d	-0.20343848
104	0xbe81828f	-0.2529492
105	0xbd814e71	-0.0631379
106	0xbdd2c86e	-0.10292135
107	0x3e1d33cf	0.15351795
108	0x3b89c9be	0.0042049577
109	0xbdce598b	-0.10075673
110	0xbe50bbbe	-0.20384118
111	0xbd5ee486	-0.054417156
112	0x3e7880c6	0.24267873
113	0x3e15c048	0.1462413
114	0xbe8dd98b	-0.27705035
115	0x3e9d3b3f	0.30709264
116	0xbe5677cc	-0.20944136
117	0x3e1a91f4	0.15094739
118	0xbe2edcf4	-0.17076474
119	0x3d6de025	0.05807509
120	0x38f2e2c8	0.000115817005
121	0xbe19fd49	-0.15038027
122	0xbe3ac661	-0.18239738
123	0xbd5084a4	-0.050907746
124	0xbe8b4eea	-0.27208644
125	0x3b7af559	0.0038293211
126	0x3e86fb01	0.26363376
127	0xbe35b860	-0.17746115
128	0x3d81cd23	0.06337955
129	0x3de8aa38	0.11360592
130	0xbe62ffca	-0.22167888
131	0xbe8b0515	-0.27152315
132	0xbe689012	-0.22711208
133	0x3d78652e	0.060643367
134	0x3a1c69ed	0.0005966712
135	0xbed81347	-0.42202207
136	0xbdaf4907	-0.08558851
137	0xbe67f0b6	-0.22650418
138	0x3a8f8fa7	0.0010952846
139	0x3db11174	0.08645907
140	0x3e8cc6cf	0.2749543
141	0xbdc4b477	-0.096047334
142	0x3e0ab8fc	0.13547128
143	0x3d404443	0.0469401
144	0x3d20c998	0.039254755
145	0x3df90d9c	0.12160799
146	0xbe2991b0	-0.16559482
147	0xbdc48e86	-0.09597497
148	0x3e86471b	0.26226124
149	0x3e23819e	0.15967414
150	0xbdbd466b	-0.09241947
151	0xbec5854e	-0.38578266
152	0xbe09fb41	-0.13474752
153	0x3e6f000a	0.23339859
154	0x3eaf6500	0.34256744
155	0x3e4b2dc9	0.19841684
156	0xbe8bc858	-0.27301288
157	0xbca24cef	-0.019812075
158	0x3e5be4dd	0.21474023
159	0x3db1e6be	0.08686589
160	0x3d5571ea	0.05211059
161	0xbec31c62	-0.38107592
162	0xbe125d55	-0.14293416
163	0xbe96f270	-0.2948184
164	0x3df41d04	0.11919597
165	0x3e8d91b5	0.27650228
166	0xbea537cb	-0.3226913
167	0x3e47bb25	0.19504984
168	0x3e162e32	0.1466606
169	0x3e94dd98	0.29075313
170	0x3d9ae35a	0.07562895
171	0xbe254447	-0.16139327
172	0xbe8a0736	-0.26958627
173	0xbdfa4d41	-0.12221766
174	0xbe8a8a6b	-0.2705873
175	0xbec8e359	-0.39235952
176	0xbe938e34	-0.2881943
177	0x3cc59aa4	0.02412159
178	0x3e07b598	0.13252866
179	0xbebd2d02	-0.369484
180	0xbd9e0eab	-0.077176414
181	0x3e17f793	0.14840536
182	0x3d920c3c	0.0713124
183	0xbdf9cd51	-0.12197364
184	0xbcd19a58	-0.025586292
185	0xbebbe137	-0.36695263
186	0xbde6ce5f	-0.11269831
187	0xbc2126d6	-0.009835919
188	0x3f2c46e7	0.6729569
189	0xbd84d115	-0.06485192
190	0x3e8fc1f4	0.28077662
191	0x3e3d8a36	0.18509755
192	0x3c931fe2	0.017959539
193	0x3e08644b	0.13319509
194	0x3e33b88e	0.17550871
195	0x3de60cc0	0.112329006
196	0xbc4ee1b3	-0.012627053
197	0xbe84de04	-0.25950634
198	0xbe0f0b7c	-0.13969225
199	0x3c24248b	0.010018478
200	0xbf398dc7	-0.7248196
201	0x3d206c94	0.03916605
202	0x3db3cf8f	0.08779823
203	0x3d3e65d0	0.046483815
204	0x3d84c327	0.06482535
205	0x3ec1c938	0.3784883
206	0xbda6c573	-0.08143129
207	0xbd0e5090	-0.0347448
208	0xbe5cc769	-0.21560444
209	0x3c111c08	0.008856781
210	0xbcdc8923	-0.02692086
211	0xbf0f9355	-0.56084186
212	0xbe6a9c2e	-0.2291114
213	0x3e1973e4	0.14985615
214	0xbdb2eb99	-0.08736343
215	0x3e730fd8	0.23736513
216	0xbf1c8bf9	-0.6115108
217	0x3eec72e0	0.46181393
218	0x3ec03ef3	0.37548026
219	0x3d8adec1	0.06780768
220	0x3e05a1ac	0.13049954
221	0x3c032b94	0.008005995
222	0xbe57db71	-0.21079804
223	0xbe36c9ae	-0.17850372
224	0x3b781448	0.0037853885
225	0xbf2d7247	-0.677525
226	0xbe8d94a3	-0.27652463
227	0xb9bea9b5	-0.00036366066
228	0x3a3bd05f	0.00071645336
229	0x3eb4e893	0.3533369
230	0xbe065200	-0.13117218
231	0xbd704b42	-0.05866552
232	0x3dc972c8	0.09836346
233	0x3e14013c	0.14453596
234	0xbd29120b	-0.041276973
235	0xbcfc2214	-0.030777968
236	0xbf00ba16	-0.50283945
237	0x3eb4baef	0.3529887
238	0xbe896df9	-0.26841715
239	0xbd883be3	-0.066520475
240	0x3ea21287	0.3165476
241	0xbea1bc10	-0.31588793
242	0xbe7e8d03	-0.24858479
243	0xbd1b8f64	-0.037978545
244	0x3cb51d08	0.02210857
245	0xbdf59308	-0.119909346
246	0xbece1793	-0.4025236
247	0x3d03d79b	0.03218804
248	0xbeb5e568	-0.35526586
249	0x3d8c7f94	0.06860271
250	0xbe74f380	-0.23921013
251	0x3e319332	0.17341307
252	0xbe6cea5f	-0.2313628
253	0xbd72b61c	-0.059255704
254	0x3d820a6f	0.06349646
255	0xbea40dff	-0.32041928

fc2.bias f4 [64]
0	0xbc8425e2	-0.016131345
1	0x3dbacf01	0.09121514
2	0x3d8843e8	0.06653577
3	0xbda3c59b	-0.079966746
4	0x3eb8cb27	0.36092493
5	0xbdcd2aab	-0.10017904
6	0xbd946d22	-0.07247378
7	0x3d9decd5	0.07711188
8	0x3da8df15	0.082456745
9	0x3f4e7f69	0.8066316
10	0xbeb4e48c	-0.35330617
11	0x3eafe79a	0.34356385
12	0x3f3552ca	0.7082945
13	0x3e5d7802	0.2162781
14	0xbd52fc23	-0.051509988
15	0x3ed5a731	0.4172912
16	0xbd1d5dd2	-0.038419552
17	0x3df3de6b	0.11907657
18	0x3e266d1b	0.16252558
19	0x3f3bf7e4	0.73425126
20	0x3f28362f	0.6570768
21	0x3f2a7b20	0.66594124
22	0xbe26420f	-0.16236137
23	0xbdf6118a	-0.12015064
24	0xbe3ca2c1	-0.1842146
25	0xbe665ba1	-0.22495891
26	0x3e513d9a	0.20433655
27	0x3cd2a501	0.025713446
28	0x3da85499	0.08219261
29	0x3e1db8f2	0.15402582
30	0x3cd4c7cf	0.025974182
31	0xbd9765d6	-0.073924705
32	0x3d02a310	0.03189379
33	0x3e1eff9f	0.15527199
34	0x3e877516	0.26456517
35	0x3ce287eb	0.027652701
36	0xbeb6c8eb	-0.35700163
37	0xbdf9e389	-0.12201602
38	0x3f34a451	0.70563227
39	0xbce9bcaf	-0.028532354
40	0xbe8c4fc5	-0.2740461
41	0x3f565149	0.8371778
42	0x3f0d3628	0.5516076
43	0xbdc749e0	-0.097308874
44	0x3e1af685	0.15133102
45	0xbea8ad20	-0.32944584
46	0x3f2ac858	0.6671195
47	0xbe4e57ec	-0.20150727
48	0x3d26abe1	0.04069126
49	0xbd66abc6	-0.05631616
50	0xbe7b0284	-0.24512678
51	0x3f113b02	0.56730664
52	0xbda8b78a	-0.08238132
53	0x3de14b2f	0.11000668
54	0x3f208c3f	0.62714
55	0xbcb9ad36	-0.022665601
56	0xbee6a4bb	-0.45047554
57	0xbe2ba9ad	-0.16763945
58	0x3e2ed4c5	0.17073353
59	0xbdd3dc94	-0.10344806
60	0x3ce41018	0.027839705
61	0x3f1c4e03	0.61056536
62	0xbde7e07d	-0.113221146
63	0xbe18c008	-0.14917004

fc3.weight f4 [4, 64]
0	0x3e25fd86	0.16209993
1	0x3e407c68	0.18797457
2	0x3e11c411	0.1423495
3	0xbe74f9f6	-0.23923478
4	0x3dfd2c76	0.12361996
5	0x3ee42ad5	0.44563928
6	0x3cdda413	0.027055776
7	0x3da9df9e	0.08294605
8	0x3e764d76	0.24052987
9	0x3e6ba1ef	0.23010992
10	0xbe7129b2	-0.23551062
11	0x3e6dae07	0.23210917
12	0x3e32e5aa	0.17470422
13	0x3e13388a	0.14377037
14	0x3df64407	0.12024694
15	0x3e1c9586	0.15291414
16	0xbc95c4e5	-0.018282363
17	0xbac37154	-0.0014911094
18	0x3de1519c	0.11001894
19	0x3e83f4f7	0.2577283
20	0x3e328f73	0.17437534
21	0x3e747941	0.2387438
22	0xbf4961e7	-0.7866501
23	0xbea4347f	-0.320713
24	0xbdf556a7	-0.11979418
25	0xbe056663	-0.13027339
26	0x3ef74811	0.4829717
27	0xbe1856d0	-0.14876866
28	0x3e797faa	0.24365106
29	0x3cb53b16	0.022122901
30	0xbf75a154	-0.9594929
31	0x3f09d90b	0.53846806
32	0x3d87e6b0	0.06635797
33	0x3e398ea1	0.18120815
34	0x3d5d111f	0.053971406
35	0xbc7ef690	-0.015561715
36	0xbea27e81	-0.3173714
37	0xbe607c0a	-0.21922317
38	0x3e504955	0.20340474
39	0x3c8a04f6	0.016848069
40	0x3e35af4b	0.1774265
41	0x3e7a0f7b	0.24419968
42	0x3e5d1cde	0.21593043
43	0x3ecaf693	0.39641246
44	0x3e26877b	0.16262619
45	0xbe6dc9b0	-0.23221469
46	0x3e59abff	0.21257018
47	0x3e19dafd	0.15024944
48	0x3c527794	0.012845892
49	0x3d9d1177	0.07669347
50	0xbe059b66	-0.13047561
51	0x3e8f4e3a	0.2798937
52	0x3ed928f0	0.42414045
53	0x3c7b971c	0.0153558515
54	0x3e4aa8a5	0.19790895
55	0x3e86c39b	0.2632111
56	0xbe727f1e	-0.23681304
57	0xbec70da0	-0.38877583
58	0x3dee0e5b	0.11623832
59	0x3eeff8d6	0.46869534
60	0x3d97a831	0.07405127
61	0x3e35b489	0.1774465
62	0xbed119ad	-0.40839902
63	0x3d966551	0.07343543
64	0x3f046d35	0.51729137
65	0x3e84484f	0.25836417
66	0x3e4d7d83	0.2006741
67	0x3e8dbc38	0.27682662
68	0x3dd0bdf2	0.10192479
69	0x3ef02b09	0.46907833
70	0x3e9267b0	0.28594732
71	0x3ca84fc3	0.020545846
72	0x3dad2ee8	0.08456212
73	0x3e83de19	0.25755385
74	0xbe0adba2	-0.13560346
75	0x3e60b727	0.21944867
76	0x3e63e957	0.22256981
77	0x3e0c917f	0.13727377
78	0xbcec9096	-0.028877538
79	0x3e447f52	0.19189194
80	0xbdeb195a	-0.11479445
81	0xbd4f1b15	-0.050562937
82	0x3d760ae9	0.060069
83	0x3e5be223	0.21472983
84	0x3e42e76a	0.1903359
85	0x3eb35638	0.35026717
86	0xbe093581	-0.13399316
87	0xbe5e82f0	-0.21729636
88	0xbc21857c	-0.009858485
89	0x3e16371a	0.14669457
90	0x3ebf6351	0.3738046
91	0x3e61055c	0.219747
92	0x3e85e638	0.26152205
93	0x3e41d01b	0.18927042
94	0x3e71c4fc	0.236103
95	0x3e8702f8	0.26369452
96	0x3d15dd63	0.036588084
97	0x3e0425ac	0.12904996
98	0x3ce6c1ed	0.028168643
99	0xbe1f118b	-0.15534036
100	0xbc851f45	-0.016250262
101	0xbe2471ae	-0.1605899
102	0x3e6c5d4a	0.23082462
103	0xbb5c7b4e	-0.0033642831
104	0x3ec95c51	0.39328244
105	0x3e69f1a0	0.22846079
106	0x3dec49a9	0.11537487
107	0xbd962a9d	-0.073323466
108	0x3e5950ba	0.21222201
109	0xbe741aa3	-0.23838286
110	0x3e7083e6	0.23487815
111	0xbd87b38f	-0.06626045
112	0xbcf66ad4	-0.030080236
113	0xbd8522a3	-0.06500747
114	0xbe30e0b0	-0.17273211
115	0x3e91df2c	0.2849058
116	0x3ef3d593	0.47623882
117	0x3e0150fa	0.12628546
118	0x3e2ed62a	0.17073885
119	0x3e8a50b7	0.27014706
120	0xbe67a9cf	-0.2262337
121	0xbe4e2afb	-0.20133583
122	0xbd062fa7	-0.03276029
123	0x3ea8efee	0.32995552
124	0x3dab740f	0.08371746
125	0x3e13f74d	0.14449807
126	0xbed973d6	-0.42471188
127	0x3c156a63	0.009119603
128	0xbf30f62e	-0.6912564
129	0xbdcd410e	-0.10022174
130	0x3e9c4aa3	0.30525693
131	0x3ec30fa9	0.38097885
132	0x3e88a823	0.26690778
133	0x3ebe4457	0.37161514
134	0x3f17a622	0.59237874
135	0x3e860044	0.26172078
136	0x3df7679b	0.12080308
137	0x3e6c96a7	0.23104344
138	0xbdaf7bf7	-0.08568566
139	0x3e63fa6b	0.22263496
140	0x3e952d88	0.291363
141	0x3d5adcb8	0.05343315
142	0xbeb2cebb	-0.34923348
143	0x3e538e68	0.20659792
144	0x3c8183c9	0.01580991
145	0x3d2ef039	0.042709563
146	0xbd762331	-0.060092155
147	0x3e2570a6	0.16156253
148	0x3e64215b	0.22278349
149	0x3ea39536	0.31949776
150	0xbeba473b	-0.3638247
151	0xbeaafde7	-0.33396837
152	0x3cbe3a39	0.023221122
153	0x3d450487	0.04810002
154	0x3eb3c479	0.35110834
155	0x3f1788d3	0.5919315
156	0x3d90785f	0.07054209
157	0x3e826394	0.25466597
158	0xbdf0c90c	-0.11757097
159	0x3dae19e8	0.08501035
160	0x3d9492ab	0.07254537
161	0xbd2d8e19	-0.042371843
162	0x3e1f2bb8	0.15544021
163	0x3ed55f5d	0.4167432
164	0x3d96c7ff	0.07362365
165	0xbe837e3b	-0.25682244
166	0x3e7c7a29	0.24655975
167	0x3eb3b396	0.3509795
168	0xbeb8c2f4	-0.36086237
169	0x3e8d4031	0.27588037
170	0x3e50d7c1	0.20394804
171	0x3e8ba02a	0.27270633
172	0x3dee805b	0.116455756
173	0xbe1e882b	-0.15481631
174	0x3e6365fd	0.22206874
175	0xbc903ade	-0.017606195
176	0x3dd06cee	0.10177027
177	0xbeab2615	-0.33427492
178	0xbe5fe8a5	-0.2186609
179	0x3eb647f0	0.3560176
180	0xbecb4880	-0.3970375
181	0x3e8e8ce6	0.27841872
182	0x3e07447f	0.13209723
183	0x3e9a0362	0.30080706
184	0xbe71decd	-0.23620148
185	0xbe346edf	-0.17620419
186	0xbdc13635	-0.09434167
187	0x3efe2c3f	0.49643132
188	0xbef58525	-0.47953144
189	0x3e84f91c	0.25971305
190	0xbdd0754e	-0.10178624
191	0xbd014ae0	-0.031565547
192	0x3e81db01	0.253624
193	0x3cfd41d2	0.030915175
194	0x3d56fe80	0.052488804
195	0x3e26e6d8	0.16298997
196	0x3e086190	0.13318467
197	0x3dd6b9f5	0.10484687
198	0xbed09eae	-0.40746063
199	0xbd81b6dc	-0.06333706
200	0x3e756ecf	0.23968051
201	0x3e87e1ba	0.26539403
202	0xbe82ebe5	-0.25570598
203	0x3d98f547	0.07468658
204	0x3e827c8b	0.25485644
205	0x3ec61e67	0.3869507
206	0xbe619900	-0.22031021
207	0x3e917542	0.28409773
208	0x3df07072	0.11740197
209	0x3e9c338e	0.30508083
210	0x3c6b4551	0.014359788
211	0x3e7eb12d	0.24872275
212	0x3e042aae	0.12906906
213	0x3eae2806	0.3401491
214	0xbf14cb1f	-0.5812244
215	0xbd21de03	-0.039518367
216	0x3e1431f3	0.14472179
217	0xbf7e2102	-0.99269116
218	0xbcfe23dd	-0.03102296
219	0x3f0919c6	0.5355495
220	0x3ecb45ae	0.397016
221	0xbe2ebcfc	-0.1706428
222	0xbd8f0a77	-0.06984418
223	0x3e8b59b4	0.27216876
224	0xbefc050e	-0.49222606
225	0x3e91d461	0.28482345
226	0xbd2fc984	-0.04291679
227	0x3c7b34e4	0.015332434
228	0xbec137d9	-0.3773792
229	0xbe105aec	-0.14097184
230	0x3e8560d1	0.26050428
231	0x3e960579	0.2930105
232	0xbe9bfed4	-0.30467856
233	0x3e793fae	0.24340698
234	0x3e38a51c	0.18031734
235	0xbf6964ff	-0.9116973
236	0x3e8d72ff	0.27626798
237	0xbe4e94f2	-0.20174006
238	0x3e37be72	0.17943743
239	0xbe3218a4	-0.17392212
240	0x3e6003d5	0.21876462
241	0xbd3f0094	-0.04663141
242	0x3dc93986	0.09825425
243	0x3ea054ac	0.313146
244	0xbe304638	-0.17214286
245	0x3ca62022	0.020278994
246	0x3e2148e3	0.1575046
247	0x3f1baf42	0.608143
248	0xbe282b83	-0.16422848
249	0xbed0d104	-0.40784466
250	0xbf9ac457	-1.2091168
251	0xbdbf49e5	-0.09340266
252	0x3e5d620f	0.21619438
253	0x3e5d3838	0.21603477
254	0x3c73c6a3	0.014878902
255	0xba6a4600	-0.00089368224

fc3.bias f4 [4]
0	0x3f2f04ab	0.683665
1	0x3eff97b4	0.49920428
2	0x3eb31758	0.34978747
3	0x3edb9656	0.42888135
