checkpoints/model_dqn_32_goal.pt (torch_old, 19572 bytes, 6 tensors)

fc1.weight f4 [64, 37]
00000000: 2d84 1e3e 2b1d 08bd 5437 44bd 36b7 5ebe
00000010: 0582 2bbd f609 773e 2a87 5ebe f2a2 8c3c
00000020: 6e49 91ba 943f d93d ac08 e43d 161d 28be
00000030: 56cf 86be cc9f 103c 1132 c9be 7c57 903d
00000040: 7681 bb3d cf4b b9bd 4888 3c3e f663 553b
00000050: 17fc 1f3d 47ed 2f3e d713 f63d 701f e63b
00000060: 444a b9bb 88a5 8cbd 9232 683d 576f d53c
00000070: 4d17 783d 7dcc f8bd 3d98 f93d 9f23 44be
00000080: f948 1cbe b28d 0abe 4f3b 5dbe 8947 c0be
00000090: 57a9 6fbd 7da6 633d 6b37 db3d 66b6 0d3e
000000a0: 7648 a23d 414c a33c 27ef 273e f317 96be
000000b0: c690 07be 6951 52be 5811 8b3c ccfc ad3d
000000c0: 6652 05bc bf63 683d 229f 8bbd e088 de3d
000000d0: 2117 393e 87aa ca3b 6d7e 8e3a 8e90 15be
000000e0: b311 86bd 2be9 d5bc 4929 cdbd bcfc a4bd
000000f0: 59a5 b3bd d3f1 393e 41bb 1fbd 01ff bc3d
00000100: 8faf 2cbd cf23 4bbb 2c8c 2bbd 938c da3c
00000110: 023d 8e3e 2497 883b 03ce 2dbd 7782 96bc
00000120: 5923 d53c 6054 ca3d 6777 f43d 1d64 fbbc
00000130: f92b 943d 1504 333e a80f aa3d b60e 98bd
00000140: 6d86 22bb 7789 e43d 70c4 0abd cb0d 12bf
00000150: dc3b 2ebe 1ea1 693e 0f8d 883d b711 e8be
00000160: 15d1 90be 1da7 aabc 3df4 923d 9234 d83c
00000170: 9e54 a33d 27e9 703d 65af 04be 2365 6b3e
00000180: 9a91 9c3c 8615 88be c31f 76bf 5472 0abe
00000190: e5c0 523e 3be9 a43d ac74 e33b 582d a03d
000001a0: 0804 25bf 9e78 633d 5c39 533d 87dd c5be
000001b0: 6f4b 94bf 6336 8dbd 15ad 103d 7710 fa3d
000001c0: c7aa 5ebd 3240 283c 5988 d83d 54f4 083e
000001d0: 2952 85bd bc64 11be 0731 17bd dda4 e33d
000001e0: 55d9 283f 7ee4 cd3d 85cc 18bd 1dd9 28be
000001f0: 469d 06be 53f9 57bd e4c4 1d3d 6bcb 2dbe
00000200: d8e7 98bd 9721 85be 7bf1 e6bd 3fa7 2fbe
00000210: 5ba3 0d3c 28ef 00bd 9e27 483e 49cd 073e
00000220: c8ff cf3c c98e ccbe 8474 c6ba 495d 8a3e
00000230: eeb8 0e3f 01d8 e53b fbfd 1e3e 8fb1 82bd
00000240: f3ce fe3c e60f 153e df05 58bd e7ac d8bc
00000250: 799b 2cbd 1dac 7b3d bab8 7dbe f326 efbd
00000260: ca19 24bd 23ae 893d 59e5 253e 3499 b4bd
00000270: f3aa 793d 4182 88bd 8b80 873d fe7e db3c
00000280: 7745 acbd fd2c 93bd 2bc0 5fbd a939 033d
00000290: 2e35 9dbd 2d10 7dbd 5069 2abe 3b23 9fbe
000002a0: f1c8 de3b 9643 7fbe 4f48 543e 2850 21be
000002b0: ec79 5c3e 2119 6fbc 964b b5bd 6552 2f3e
000002c0: 2447 703d 0406 2c3e fb23 7a3e 7002 55be
000002d0: 0204 26bd bc15 4c3c 90ff 183f 3199 5fbd
000002e0: 61ca e63b bbee 4fbd 470e 763d 0a21 eabc
000002f0: 844b 5fbe 6b1f c2bd 9629 953e 2df7 663b
00000300: 97f7 7dbe 3d51 91be 4ec0 9abf 2887 2fbe
00000310: 120a ce3d 0a33 c1bc fb07 2dbe 6b2a d4bb
00000320: 0442 f2bd d219 3e3e bbc5 55bd db9a 9ebd
00000330: 9497 6ebe d352 00bc 9429 d43d 436f 173e
00000340: de57 c2bd 90c0 d93d 647a 8fbe 227b ae3d
00000350: b588 0e3e 144a d63d 53b3 bfbe d60c bebe
00000360: 1c2a 533e b359 c13d 60cf f23d c75d cabe
00000370: 5eae d93b 0417 4a3d 4761 2e3c 67f4 b43d
00000380: b918 f1bd bcc9 ee3d 548b d13c dcd9 60be
00000390: d5d2 013e 51cc a43b 9cf4 7c3d d030 383e
000003a0: 3628 a7bd c03f 4f3c f55a 633e c901 06be
000003b0: 62db d03e 013d a9bc 41fd fdbd bc61 1dbb
000003c0: 9c9f 213e edf7 903e e31a 46be 9e88 31bc
000003d0: d785 a33d a282 363c ca4e da3e fc15 b5bd
000003e0: eb28 abbc b01e a93b a0a1 80be c3a6 bcbd
000003f0: 8a21 463e bd38 00be 584f 35be a910 56be
0.15480109 -0.03323094 -0.047904328 -0.21749577 -0.041872043 0.24124894 -0.21731248 0.017167542
-0.0011084506 0.1060783 0.111344665 -0.16417345 -0.2633006 0.008827161 -0.3929601 0.07047936
0.09155552 -0.090476625 0.18411362 0.0032560802 0.03905877 0.17180358 0.12015503 0.0070227906
-0.005654605 -0.0686751 0.056688853 0.026054068 0.060569096 -0.12148378 0.1218724 -0.19154213
-0.15262212 -0.13530615 -0.21604656 -0.37554577 -0.058511104 0.055578697 0.107039295 0.1383911
0.07923977 0.019933822 0.16399823 -0.29315147 -0.1323882 -0.20538868 0.016976044 0.08495483
-0.008137321 0.05673575 -0.068174616 0.108659506 0.18075229 0.006184879 0.0010871418 -0.14605924
-0.065463446 -0.02611216 -0.1001764 -0.08056018 -0.08771772 0.18158655 -0.03899694 0.09228326
-0.042159613 -0.0030996685 -0.041881725 0.02667836 0.2778092 0.004168408 -0.042432796 -0.018372757
0.026017832 0.098793745 0.11936837 -0.030687386 0.072349496 0.17482026 0.083037674 -0.07424681
-0.0024799362 0.11159032 -0.033878744 -0.57052296 -0.17015022 0.22815368 0.0666753 -0.45326015
-0.28284517 -0.020831639 0.07175491 0.026392255 0.07975124 0.0588161 -0.12957533 0.229878
0.019112397 -0.2657892 -0.96142215 -0.13520175 0.20581396 0.08052298 0.0069413986 0.07821149
-0.64459276 0.05553495 0.051568374 -0.38645574 -1.158552 -0.06895139 0.035321314 0.12210172
-0.054362085 0.010269212 0.10572881 0.13374454 -0.065098114 -0.14198583 -0.03691199 0.111154296
0.6595662 0.10053347 -0.03730442 -0.16489072 -0.13145933 -0.05272801 0.038517848 -0.16972129
-0.07466096 -0.2600219 -0.112765275 -0.17153643 0.008644904 -0.031478077 0.19546363 0.13261904
0.02539052 -0.39952686 -0.0015140926 0.27024296 0.5575093 0.007014275 0.15526573 -0.06381523
0.03110454 0.14556846 -0.052739974 -0.026449634 -0.042140458 0.061443437 -0.24777499 -0.11677351
-0.040063657 0.06722667 0.1620077 -0.08818284 0.060954046 -0.06665469 0.066163145 0.026793953
-0.08411687 -0.07186315 -0.054626625 0.03203741 -0.07676159 -0.061783005 -0.16641736 -0.31081566
0.0067988564 -0.24928126 0.20730709 -0.15753233 0.21530885 -0.014593394 -0.088523075 0.17121275
0.058661595 0.1679917 0.24427788 -0.20801711 -0.040531166 0.012456354 0.5976496 -0.054589454
0.0070431684 -0.05076478 0.06007221 -0.028580207 -0.2180615 -0.09478649 0.2913329 0.0035242543
-0.2480148 -0.28382292 -1.2089937 -0.17141402 0.100605145 -0.023583908 -0.16897576 -0.006474783
-0.11828998 0.18564537 -0.052190524 -0.0774438 -0.2330001 -0.007832247 0.10359493 0.14788537
-0.094894156 0.106324315 -0.28023064 0.085195795 0.13919337 0.10463348 -0.374415 -0.37119168
0.20621532 0.09440937 0.1185596 -0.3952467 0.0066431006 0.049338356 0.01064331 0.088356785
-0.117722936 0.116595715 0.025579132 -0.21958107 0.12678082 0.005029239 0.061756715 0.1798737
-0.081619665 0.0126494765 0.22202666 -0.13086618 0.40792376 -0.020658972 -0.1240182 -0.0024014553
0.15783542 0.28314152 -0.19346194 -0.010835795 0.07984512 0.011139544 0.42638236 -0.08842084
-0.020893535 0.005161129 -0.2512331 -0.09211495 0.19348732 -0.12521644 -0.17706048 -0.20904793

fc1.bias f4 [64]
00000000: 8cc0 253e 25a8 53bc 476c a0bd e124 17be
00000010: a475 353e 30a8 e8bc 4db5 fdbd 16e8 21bc
00000020: 928a 943d 4149 2ebe 34bc 003e 97d7 1b3e
00000030: a3bf a13d 77e8 fc3d 073c 56bd 4429 cebd
00000040: 36b3 6e3c a5f1 2c3d 35d7 2ebc 87c1 27be
00000050: ff29 bfbd 9113 ee3d 1d49 2d3c 49ce a3bd
00000060: 8596 31be 6ea9 653e 2054 c73c bbb4 58be
00000070: d727 643e 7451 633e 478d c8bc 5391 97bd
00000080: dcb5 8c3d b98e babc d5be 10be c781 863d
00000090: 3b5a 2b3d 9eb6 4a3d 7a89 23be 364e 43be
000000a0: 9f46 90bd e890 b03c e13a ffbd ec71 003e
000000b0: 2fc9 c7bb 8cf7 453d c490 b63d 378c 30be
000000c0: 4b8f 9dbd d181 193e f1e4 34bd 6418 033e
000000d0: 546a 17bd 7a0a 3bbc 3bfc d6bd ad73 27bb
000000e0: f9ff cd3d f0af 84bd 40c7 85bd 34cb ecbd
000000f0: e016 e33d 40e5 933d 5e7c 3ebc dec7 d03c
0.16186732 -0.012918507 -0.07833152 -0.14760162 0.17720658 -0.02840051 -0.12388096 -0.009881994
0.07252993 -0.17020132 0.12571794 0.1521896 0.0789788 0.12349027 -0.05230334 -0.100664645
0.014569094 0.042222638 -0.010671427 -0.16382419 -0.09334182 0.11624826 0.010576514 -0.0799833
-0.17342575 0.22427914 0.024332106 -0.21162693 0.22280823 0.2219904 -0.024481429 -0.07400765
0.068706244 -0.022773134 -0.14135297 0.06567722 0.041834097 0.049490564 -0.15970412 -0.19072804
-0.0704472 0.021553472 -0.12462402 0.12543458 -0.006096981 0.048331782 0.089143306 -0.17240988
-0.076933466 0.14990927 -0.044163648 0.12802273 -0.036966637 -0.011416072 -0.10497328 -0.0025551126
0.100585885 -0.0647887 -0.065321445 -0.115621954 0.110883474 0.0722146 -0.011626331 0.02548593

fc2.weight f4 [32, 64]
00000000: 525e 72bd 40ce bb3d a892 b2bd c954 333e
00000010: ffc7 333e 2c81 1bbe be50 13be 4114 a0bd
00000020: e3d1 7c3c 9689 8c3d f11e d03c 16ac afbe
00000030: ecbe afbd 1215 873e e84d 2cbd bcc5 3ebe
00000040: 85ba dbbe c441 fdbd 5c37 4b3e 5422 d83d
00000050: b860 ee3c 5912 ea3e 4616 653d ad68 133e
00000060: 69e5 d8bc 5ffe 21be 5325 14be 497f 54be
00000070: cbc1 823d efb6 5fbd 4aa3 87be 8d52 4cbe
00000080: 1107 623e 9ea0 a73e fcd4 25bc 3776 91bd
00000090: ed25 eebe 5d90 2f3d bdf4 833b 8e1f 83be
000000a0: 1bc0 48be 1901 f53d ae31 d23d 1584 94bd
000000b0: 9785 93bd 1198 bebe 3b8c 28be a7f1 033e
000000c0: 1b7f 83be 4318 a53e df3e 65be f7c9 bb3c
000000d0: 39aa 1abe b22e febd 9481 c73d 2fe0 90bd
000000e0: 3dbb 66bd bec1 6dbe 0558 2ebe 667e 0b3e
000000f0: ad3a c53d 244b 393e cbdd 50be bb2e 9f3d
00000100: 8199 1a3e 3ed8 28bd bfb5 5bbe fc2c 6dbd
00000110: 9f65 df3d 0c4b 623d 7f43 9dbe cf42 1c3e
00000120: fd36 50be 8aae dabd e1f9 983d bd14 153e
00000130: ec72 47be 1541 be3d 8816 9dbd 60f2 293e
00000140: d890 4f3b d3f7 58be 17dd 3cbe b28d 843d
00000150: 3cbf ecbd 39dd aabe 898b aabd 2d18 5fbe
00000160: 9411 d53b 70de d0be e479 7f3c 71ec a03d
00000170: be95 e23d a5b6 e7bd 3b17 253f 552b 8abd
00000180: 073c 81bb 1c37 04bd 394d 433e d218 3b3b
00000190: 2a87 cd3d e1fe b93d ea04 e93c 2f20 94be
000001a0: 290b a9be 61bb 68bc c175 803d 0e27 42be
000001b0: 6e96 c3be 0ef3 fabc 79ed a0bd 297a 273e
000001c0: 9640 b0be 5cec 94be 2f0e 07be f80c 03bf
000001d0: e9dd 61be 44d2 4a3e 12fd 2a3e d2fc 88bc
000001e0: d850 18be 32b2 193c c6ec 803d 347d b73e
000001f0: ef8f 8f3d 20b6 bebe 9d28 be3c b5a2 70be
00000200: 9773 5ebe c2e6 e8bc 5415 32be 1e69 483d
00000210: e63a 873d 4fd6 813e 39ed 8e3d b5bc 1d3d
00000220: 4dde 973d c5b8 48be 1f92 0b3d fa11 263e
00000230: d867 6b3c 3593 0d3e 60dc 37bd 0e36 8ebd
00000240: d44b 793d 3b47 093e 9d27 09bd 92db bbbd
00000250: 699f 28bd 568e 38bd 1fa2 5dbe ea33 b4be
00000260: 1128 2cbc 75ee 843e 3b02 1c3e 92e6 843c
00000270: 18a9 50bb 8e3d 5f3e 95d5 bcbe 1b25 76bd
00000280: 780b 27be 384f 05bd 6353 073e f527 333d
00000290: a3af f73d 209d bf3d 9d0c 1e3e db91 823c
000002a0: a7c9 db3d 805d 18be eb00 653d d1ae 6a3d
000002b0: 7f38 18be cf6f 783d 7a29 543c d947 cdbd
000002c0: 8eae 1bbd 0067 3dbe 2c12 78bd 4510 663e
000002d0: 855f 30be 50c3 2bbe 61c8 d3be 0fa1 dcbd
000002e0: 2bce bd3b 663b a1be 485c 8f3e e5cd 0e3e
000002f0: 948d a4bd c341 f13d 0dd1 673c 6209 2bbc
00000300: cad8 ff3d acc3 31be 045e 983e c351 d13d
00000310: bff0 84be 74b7 efbd d3da 00be 4ce7 8ebd
00000320: 21fd 9fbd 0c9c d0bd da16 003e 0a04 8c3d
00000330: 2c6a edbd cf8c a63d a122 aebe b8f5 03be
00000340: 2fd0 88bc a820 22be 09ec 43bc 0902 353d
00000350: f74c 4dbd 6a79 b73c 6cf4 7cbe 865e 7ebd
00000360: de78 293e 61b3 8abd f7ff 2e3e 2bc0 aabe
00000370: 55fa 423b 59b3 98be d21b be3e 16c2 973d
00000380: da3f 03bd 2702 0bbe f0e2 023d 500a 4f3e
00000390: cb87 d9bd eaca 763d 5e65 f23d 52de 573e
000003a0: 1953 043e ee07 923c c7c5 753d 74e6 8dbe
000003b0: 4168 283e 34bc f63d 96af 8e3d 02e5 b73d
000003c0: 4a38 12bc c787 65be b424 76be c04f e5bd
000003d0: 10b7 a7bd 1a18 95bb dc6e 103e 8800 0bbe
000003e0: a40e a1be a09e c7bd 93bd 79be 35cc 893e
000003f0: f0d5 07bc 741f 86be 4b08 b3be e623 fdbd
-0.059171982 0.091701984 -0.08719379 0.17512812 0.17556761 -0.15185994 -0.1438627 -0.07816363
0.0154309 0.0686218 0.025405379 -0.3431098 -0.08581337 0.26383263 -0.042066485 -0.18630117
-0.4291574 -0.123660594 0.19845337 0.105534226 0.029098853 0.45717123 0.055929445 0.143954
-0.026476579 -0.15819691 -0.14467363 -0.2075168 0.06384619 -0.05461782 -0.26491767 -0.19953366
0.22073008 0.3273973 -0.01012158 -0.07102626 -0.4651331 0.042862285 0.004026978 -0.25610012
-0.19604532 0.119631 0.10263382 -0.07251755 -0.072032146 -0.37225392 -0.16459744 0.12885152
-0.2568291 0.32245073 -0.22387265 0.022923453 -0.15103997 -0.1241125 0.09741512 -0.070740096
-0.056330908 -0.23218438 -0.17025764 0.13622436 0.09630332 0.1809507 -0.20397107 0.07772585
0.1509762 -0.04122185 -0.2145605 -0.05790423 0.109080546 0.05524735 -0.30715558 0.1525986
-0.20333476 -0.10677822 0.074695356 0.14558692 -0.19477433 0.09289757 -0.07670313 0.16596365
0.0031672027 -0.21188287 -0.18443714 0.06472339 -0.115599126 -0.33371904 -0.083273955 -0.21786566
0.0065023396 -0.40794706 0.015593026 0.078575976 0.11063717 -0.113141336 0.6448857 -0.06746546
-0.0039439234 -0.03227912 0.19072427 0.002854873 0.10035546 0.090818174 0.028444726 -0.28930804
-0.33016327 -0.014204831 0.0627246 -0.1896021 -0.38200706 -0.030633476 -0.07857794 0.16355194
-0.34424275 -0.29086578 -0.13189004 -0.51191664 -0.22057308 0.19806772 0.16698101 -0.016722117
-0.1487459 0.009380864 0.06295161 0.3583771 0.07009875 -0.37248325 0.023212725 -0.23499568
-0.21723782 -0.028430346 -0.17390949 0.048928373 0.06603031 0.25358817 0.069788404 0.038510043
0.074154474 -0.19601734 0.0340749 0.16217795 0.01436802 0.13825686 -0.0448879 -0.06943904
0.06086333 0.13406079 -0.033485044 -0.09172739 -0.04116765 -0.045057617 -0.21643876 -0.35195857
-0.010507599 0.25963178 0.15235226 0.016223226 -0.003183907 0.21800825 -0.368817 -0.06009398
-0.16312969 -0.032546252 0.13215403 0.043739278 0.12094047 0.09356141 0.15434499 0.01593869
0.107318215 -0.14879417 0.05590908 0.057295624 -0.14865302 0.060653504 0.012949342 -0.100234695
-0.038008265 -0.18496323 -0.060564205 0.22467144 -0.17223938 -0.16773725 -0.41363814 -0.10772907
0.0057923994 -0.3149063 0.28000093 0.1394573 -0.080348164 0.11780121 0.014148963 -0.010439249
0.12492521 -0.17359799 0.29759228 0.10220673 -0.25964925 -0.11704913 -0.12583475 -0.0697771
-0.078119524 -0.101860136 0.12508717 0.06836708 -0.11592516 0.08132326 -0.34010795 -0.12886703
-0.016700832 -0.1583277 -0.011958131 0.044191394 -0.050122228 0.022396762 -0.24702615 -0.062101863
0.16550013 -0.06772495 0.1708983 -0.33349738 0.002975126 -0.2982433 0.371306 0.07410066
-0.032043315 -0.1357504 0.031954706 0.20218778 -0.106216036 0.060252108 0.118357405 0.21080902
0.12922324 0.017826047 0.06000307 -0.27714884 0.1644602 0.12047616 0.06967084 0.08979227
-0.008924553 -0.22415076 -0.24037439 -0.11196852 -0.08189213 -0.0045499923 0.1410479 -0.13574421
-0.31456482 -0.09747052 -0.24388723 0.2691361 -0.008290753 -0.26195872 -0.34967265 -0.12360363

fc2.bias f4 [32]
00000000: 1687 7a3d 397a 51bd 8f41 b0bb 7c9e 76bb
00000010: c306 223b d4f6 26bc ec2f 36bd b438 0abc
00000020: fbf5 84ba 22d5 74be 3f88 8f3e cb16 123d
00000030: 461f 003e 6f04 0f3e a6f5 933c 26fb 163d
00000040: f7b0 afbd 7807 4a3e 4e81 053d 7a99 cabc
00000050: da44 ad3d 17df 9f3c 57d9 793e 760f f63d
00000060: 9fa6 af3d 97b1 17be a4d3 db3d 3b3c 023d
00000070: 91b6 6f3e 1481 2ebd ff48 a03d 7f51 b53e
0.061163984 -0.05114195 -0.005378909 -0.0037631085 0.0024723269 -0.010190684 -0.044479296 -0.008436371
-0.0010144109 -0.23909429 0.28033635 0.03566627 0.1251193 0.13966535 0.01806147 0.036860608
-0.08578675 0.19729412 0.032594018 -0.024731386 0.08460398 0.019515557 0.24399315 0.12014668
0.08576702 -0.14813839 0.107337266 0.03179572 0.23409487 -0.042603567 0.07826423 0.3541374

fc3.weight f4 [4, 32]
00000000: 112b c23e 2288 c6bd d690 8a3e a467 bb3e
00000010: eaab 88bd d706 0b3e c60b ca3d 25ab ffbe
00000020: c673 3cbe 6878 47be 1bcc 513e bcb3 74bd
00000030: 1c7c 863e 926b 773d b085 023f ad28 25bc
00000040: 1399 1cbe f915 ab3e 2dee 46be b2bd 2ebe
00000050: 65ad f1be 2de2 863e 767f d33d 2eff 113e
00000060: e176 923e 9809 7cbc 25ad b8bd 2922 823d
00000070: b2c2 a03d 5f69 06bd cb51 4b3c 30e1 403e
00000080: 5d47 ab3e f779 053f 9cd3 393e b008 b0be
00000090: b4dc 16bd d0ec cb3d 5584 093e e9e3 143c
000000a0: 3421 43be 62c4 38be 3e43 a13d 6e3c 09bf
000000b0: f50a 713e 1b0d 12bf 3222 f13e 19e4 a9be
000000c0: e8a9 cebd 4139 a73e 0003 7dbd b17e 3fbc
000000d0: 79da a5bd ebd0 423e 9c4f 363e c967 313e
000000e0: 2613 893e 831c a2bd 7f78 ddbd 1edd 12bd
000000f0: 805d 4b3e ced5 91bd 256d a93d 17bd 0d3e
00000100: 14a3 793e 7c5b a7be 4dcd 7f3e f5d0 e7be
00000110: 3241 a63e f1fc c8be dc66 2ebe ef8a 8dbe
00000120: e448 9dbe 5c30 0fbe 245b 50bc b5c3 603e
00000130: 6ef2 503d f9d9 edbd a58a c13e a830 6abe
00000140: 55c8 e1bd c2b7 0c3d e180 053e aae7 743d
00000150: 7b65 19bd 0894 b3bc 7961 98bb 8105 283d
00000160: ae6a e43e e106 0dbe 141f 2fbe bce2 623e
00000170: 2213 303e 81c3 113e 5a83 563e 5c60 983e
00000180: ab8a 073f 8eaa c23e 136d 4d3e 1343 423e
00000190: e0ba 253e c6af 1e3e 472d b3bd 7c6c 37be
000001a0: 6786 33be b069 3fbe 963b 2a3e 1f2a f53d
000001b0: 28f4 8e3d 2105 7b3e 710e ca3d 02f0 adbe
000001c0: d607 0bbb 055a 763d fe4f ab3d 9e02 d63d
000001d0: 1c87 debd 542d 2c3d db41 783e 81bd a03e
000001e0: 2719 903e e9d3 f23d 2d29 c83d b957 79be
000001f0: 8253 043e dd84 ce3d c829 903e 5bac c93d
0.37923482 -0.09693934 0.27063626 0.3660251 -0.06673415 0.13576828 0.09865527 -0.4993526
-0.18403539 -0.19479525 0.20488016 -0.05974172 0.26266563 0.06040532 0.5098524 -0.010080499
-0.15292768 0.334152 -0.19426794 -0.1706455 -0.47202602 0.26344433 0.103270456 0.142575
0.28606322 -0.015383147 -0.090174 0.06354172 0.07849635 -0.032815333 0.012409638 0.18835902
0.33452883 0.5213923 0.18147129 -0.34381628 -0.036831573 0.09957278 0.13429387 0.009087541
-0.19055635 -0.18043664 0.078741536 -0.53607833 0.23539336 -0.5705125 0.470964 -0.33181837
-0.10091001 0.3266087 -0.06177044 -0.01168792 -0.08098311 0.19025008 0.17803806 0.17324747
0.26772422 -0.079155944 -0.108139984 -0.035855405 0.19859886 -0.07120858 0.08272771 0.13841663
0.24378616 -0.32686985 0.2498066 -0.4527661 0.32471615 -0.3925548 -0.17031425 -0.2764506
-0.30719674 -0.13983291 -0.012717042 0.21949656 0.05101245 -0.116138406 0.3780109 -0.22870123
-0.110245384 0.034354933 0.13037445 0.059791245 -0.037450295 -0.021921173 -0.0046502915 0.041020874
0.4461264 -0.13772155 -0.17101699 0.22156805 0.17194799 0.14234735 0.20948544 0.29761016
0.52945966 0.38020748 0.2006114 0.189709 0.16184568 0.1549674 -0.0874887 -0.17912477
-0.17531739 -0.1869266 0.16624293 0.119709246 0.06980163 0.24513675 0.09866036 -0.33972174
-0.0021214387 0.060144443 0.08364867 0.10449718 -0.10865614 0.042035416 0.24243872 0.3139458
0.2814419 0.11856825 0.09773479 -0.2434987 0.1292248 0.100839354 0.28156877 0.09847327

fc3.bias f4 [4]
00000000: f086 8c3e ab97 893e ba92 8d3e 370d 473e
0.274467 0.26873526 0.27651006 0.19438635
