checkpoints/model_dqn_32.pt (torch_old, 19572 bytes, 6 tensors)

fc1.weight f4 [64, 37]
000000 0c 30 26 3d a4 9d 04 3d 32 95 70 ba f9 ec 10 bd
       0.040573165 0.0323769 -0.0009177505 -0.035382245
000010 af be aa be d8 13 fa 3d 90 09 b7 3b b9 b1 16 bd
       -0.33348605 0.12210816 0.0055858567 -0.036790583
000020 d9 17 e0 bd c7 65 3c 3e 27 f1 60 bd a8 e5 47 3d
       -0.109420486 0.183982 -0.05491748 0.048803
000030 8d 52 21 be 0f 4e 9e bd c1 01 8b be 16 2a 15 3d
       -0.15754147 -0.07729732 -0.27149776 0.03641709
000040 75 c8 91 be f6 ba 6a 3d 9c de df 3e 18 cb 4e be
       -0.2847325 0.057307206 0.43724525 -0.20194662
000050 58 0f 9f 3c c0 a7 08 3e 17 f1 c8 3d 63 9d 56 3e
       0.019416496 0.13345242 0.09811609 0.20958476
000060 04 bf 71 be ba 6e 49 ba 1f 76 7f 3e 6d fb 19 be
       -0.23608023 -0.0007684041 0.24947403 -0.15037318
000070 ac 2a 8a 3d a1 ad a1 3b 7f 1c c1 bc a1 c0 39 3d
       0.0674642 0.0049340283 -0.023573158 0.04534972
000080 fa d1 5c be 5a 60 38 3e df ee 21 3e 6b 6a ab be
       -0.21564475 0.18005505 0.15813778 -0.33479628
000090 d7 2e 8f bc d3 13 86 3d a7 14 8f 3e fe d2 2f 3e
       -0.01747839 0.0654675 0.27945444 0.17170331
0000a0 7b 33 ae 3d 9f 40 ea bd 7a 8f 82 3e 4f c9 41 be
       0.08505913 -0.11438107 0.2550009 -0.1892445
0000b0 db 02 f2 bd a2 5f 70 be 08 12 34 be 78 37 82 3d
       -0.11816951 -0.23473981 -0.17585003 0.06358236
0000c0 d6 2c 8b 3c 38 e5 0e 3e d8 9f 09 3e 5e f1 7a 3d
       0.016989153 0.13954628 0.13439882 0.061265342
0000d0 fd ce 4b 3e 30 db 01 3e d4 f0 97 3d 9f 3e d1 bd
       0.19903179 0.1268127 0.07418981 -0.10217022
0000e0 95 b0 63 be 47 df 1a be 54 d0 5f 3c d0 e9 76 3d
       -0.2223533 -0.15124236 0.013660509 0.060281575
0000f0 18 25 35 3e a1 00 52 3e 57 7c 90 3d f5 6b 1b 3b
       0.17689931 0.20508052 0.07054966 0.002371547
000100 63 6f 87 3d 17 8d d1 3d 00 77 e2 bc 45 72 79 3d
       0.06613042 0.10231989 -0.027644634 0.06089999
000110 02 e0 4a 3e 1c 0e fd 3d a1 62 67 3e 72 2e b8 bd
       0.19812015 0.12356207 0.22596218 -0.08993234
000120 00 84 55 3d 46 bf 97 3d 33 ee db bc 73 e9 1b bd
       0.052127838 0.074095294 -0.02684698 -0.03806443
000130 91 c4 a8 3d fe 42 9d bc 52 22 41 3e 6c 3a 5b be
       0.08240617 -0.019196983 0.18860748 -0.21409005
000140 48 b2 56 bd ca 37 0a 3e 7c 21 b8 be f7 59 18 bf
       -0.052416116 0.13497844 -0.35963047 -0.59512275
000150 70 67 c5 be 0a 9c 18 3e 6c cc 04 3e 8f 97 76 be
       -0.3855548 0.14903274 0.12968606 -0.24081253
000160 44 22 42 bf 9d 7e 18 be d6 a5 28 3e 4a b7 25 bc
       -0.75833535 -0.14892049 0.16469511 -0.0101145
000170 ec 7b 4a be 2a 25 20 3e ff 2a 43 be 8a 0a c2 3e
       -0.19773835 0.15639177 -0.1905937 0.37898666
000180 b1 84 d3 bd 62 42 03 bf 0b 8b 96 bf 7e c1 01 bf
       -0.10328043 -0.5127317 -1.1761183 -0.5068587
000190 c7 27 e2 3d 9a 58 91 3e 37 69 09 3d f9 93 06 3b
       0.11042743 0.2838791 0.033547606 0.0020534976
0001a0 61 0a 32 bf c6 43 11 bd 77 49 0d 3d b3 8f ec be
       -0.69547087 -0.035465024 0.03449389 -0.46203384
0001b0 ce 8c d9 bf 63 62 6e 3d 63 e1 64 3d 22 31 72 3d
       -1.6996095 0.058199298 0.055879008 0.059128888
0001c0 3e 73 89 bd 81 af b1 3c ec 22 88 3d b9 b0 93 3e
       -0.06711434 0.021690132 0.06647286 0.28845766
0001d0 25 ce d8 be 22 bd bb be 01 1f 1c 3e 73 fe 88 3e
       -0.42344776 -0.36667734 0.15246202 0.2675663
0001e0 38 0e 18 3f af 5d e5 be 32 c9 8f 3e 31 cc 51 bd
       0.59396696 -0.44798037 0.28083187 -0.051220123
0001f0 cc d3 b5 be 26 4b 02 bf b3 20 f7 be d8 b0 9a bd
       -0.3551315 -0.5089592 -0.48267135 -0.075532615
000200 a6 71 db bc 56 cd bb bd 5f 64 56 3e 1c 66 b9 be
       -0.02678759 -0.09170024 0.20936726 -0.36210716
000210 12 e0 03 3e 01 ef 87 3d 64 4c 88 bc 86 d4 bf 3d
       0.12878445 0.06637383 -0.016637988 0.093667075
000220 cb 68 ab be 93 4a cd be cd 11 87 3e f3 67 42 3e
       -0.33478388 -0.40095958 0.26380768 0.18984966
000230 0f 3b 06 3f 77 9b 43 bd 2c d6 ed bd 21 4e c9 bc
       0.52433866 -0.047755685 -0.11613116 -0.024573388
000240 41 e6 8b 3e bf 12 4c 3d 56 f8 ce bc f0 0d b8 bc
       0.27324107 0.049822565 -0.0252649 -0.022467583
000250 65 11 16 be ff 9c b6 3c 76 ff a2 bd fa 84 b3 3d
       -0.14655073 0.022291658 -0.079588816 0.08765598
000260 4f a1 46 bd b3 f2 3c 3e ab ca 9b 3e fa 98 5d be
       -0.04849368 0.18451957 0.3042806 -0.21640387
000270 c3 3e a4 bd e4 94 8e be 68 63 89 3c fa ab 08 3e
       -0.08019783 -0.2784797 0.016771033 0.13346854
000280 f8 e7 6b bd 0d 29 06 3d d1 7f f7 bd 18 07 95 3c
       -0.05759427 0.032753993 -0.12084926 0.01819186
000290 f9 2f bd 3d c7 6b 18 3d 87 1b a0 be 48 7c a1 be
       0.09237666 0.03721216 -0.31271002 -0.31540132
0002a0 02 f6 1e 3e 83 70 b2 bd 83 09 f5 bc a4 4d ea bd
       0.15523532 -0.08712866 -0.029911762 -0.1144059
0002b0 9b a3 61 3e b7 c9 7a 3e 4c 8e 8c be 15 17 bc 3d
       0.22035067 0.2449101 -0.27452314 0.0918409
0002c0 20 cb 24 be 84 94 31 3e 2b 80 3a 3e 51 3a 56 bc
       -0.16093111 0.1734181 0.18212955 -0.013075427
0002d0 59 99 36 3c 02 58 35 3e b0 04 20 3f 16 68 8d bd
       0.011144959 0.17709354 0.6250715 -0.069046184
0002e0 3f 5e 94 bd 1d e7 62 be cb 82 4d 3e 80 4a 04 3d
       -0.072445385 -0.22158475 0.20069425 0.03229761
0002f0 6e 0f e8 bc a0 c1 7e be b1 cf a3 3e bd 35 f4 bd
       -0.02832767 -0.2487855 0.31994393 -0.11924312
000300 61 fb e8 3c 45 2e bd be 3d 5d 2f c0 3f 18 b3 bb
       0.02844018 -0.36949363 -2.7400658 -0.005465537
000310 cd 6f 87 bd 94 65 07 3e aa 6a 0d be 3c 6c 9f bd
       -0.06613121 0.13222343 -0.1381022 -0.07784316
000320 c1 27 9d bd 2f fa 65 3e 30 6e 7d bb 91 a8 de bc
       -0.07673598 0.22458719 -0.0038670413 -0.027179988
000330 e0 db 39 bf c0 ea a6 3c 55 72 06 3b 3a ea 25 3e
       -0.7260113 0.02037561 0.0020514925 0.16202632
000340 c3 b0 32 3e 39 6e 16 bd 6f 88 bc bd 21 54 82 3e
       0.17450242 -0.03672621 -0.0920571 0.2545481
000350 31 4a f5 3c 7a e5 3a be 25 7f 92 bf 67 88 5a be
       0.029942604 -0.18251601 -1.1445051 -0.21341096
000360 d5 e1 bb 3e 4c e7 35 3d e1 1e c1 bd b3 04 99 bf
       0.36695734 0.044410035 -0.09429718 -1.1954559
000370 41 7b cb 3a cc 4c 0c 3d 78 22 46 3d 34 2d 1d bd
       0.0015524403 0.034252927 0.048372716 -0.038373187
000380 1c 83 01 bd 0d 74 33 3e 3e 11 e3 bd 72 5f 17 be
       -0.031619176 0.17524739 -0.11087273 -0.14782503
000390 f2 20 96 bb 76 c7 33 3e c6 4f 01 3e a9 45 95 3e
       -0.004581564 0.17556557 0.12628087 0.2915471
0003a0 49 5e 8b 3d bf 2b 11 3d f6 53 7a bd 8d e3 96 3e
       0.06805093 0.03544211 -0.061115228 0.29470482
0003b0 35 74 7d 3e 62 ed ff bc 7a c2 2e be d2 fe 97 3d
       0.2475136 -0.031241123 -0.17066374 0.0742165
0003c0 0b b8 42 3e 48 3e 51 3e 55 e3 a3 bd ab 8a b3 bd
       0.1901552 0.20433915 -0.080023445 -0.08766683
0003d0 13 b3 15 3d 5a ca 4b 3e 9d cc f3 3e 50 94 11 be
       0.03654773 0.1990141 0.47617045 -0.14216733
0003e0 94 88 4a 3d 93 a3 8b 3d b6 dd d2 bd ac 13 96 bc
       0.049446657 0.06818309 -0.10296194 -0.018319927
0003f0 8b f3 a0 3e cd 4e df be 3d 30 28 bf b2 93 e4 be
       0.3143581 -0.43614808 -0.65698606 -0.44643933

fc1.bias f4 [64]
000000 58 83 fd bc a4 c8 a9 3d f7 11 0c be 22 dd 49 be
       -0.030946419 0.08290222 -0.13678728 -0.19713262
000010 2d 32 63 3e 90 0b d8 3d 25 a3 e1 bd da 0d 4b 3d
       0.2218711 0.1054908 -0.110174455 0.049573757
000020 11 4e 34 bd ed b4 62 be 3b 73 00 3e c9 e6 45 3e
       -0.044019762 -0.2213933 0.12543957 0.19326319
000030 41 e1 a4 bb 8e 23 b7 3e 9f bd 3b bd 55 1c 76 be
       -0.005031735 0.35769314 -0.045835134 -0.24034245
000040 5a c9 9e 3d fc ec ec bd ed 3d 9b bd 06 48 7b bd
       0.077532485 -0.11568639 -0.07580171 -0.061347984
000050 99 ca f1 bd 91 8d f6 3d 85 01 2d 3d 56 df 97 bd
       -0.118062206 0.120387204 0.042237777 -0.07415645
000060 f1 79 57 be 51 88 66 3e c9 f5 4e be b7 96 ac be
       -0.2104261 0.22512938 -0.20210947 -0.33708736
000070 7b b4 aa 3e c9 97 83 3e 9b b0 cf bc 2d 5e 3b bd
       0.3334082 0.2570174 -0.025352767 -0.04574411
000080 ab 92 b8 3d 52 19 96 bd 66 a7 ca bd c0 c2 08 bd
       0.0901235 -0.07329048 -0.0989521 -0.033388853
000090 0a 51 42 3e 9a a0 8f 3c ef 6f 42 be cc e4 81 be
       0.18976226 0.017532635 -0.18988012 -0.2536987
0000a0 b8 be aa bd 6e f2 69 3d 54 e4 52 3d ec ce e6 3d
       -0.08337158 0.057115965 0.051487282 0.11269936
0000b0 40 25 b2 bb dd 60 dc 3d df 30 8f 3e 7b 8f 69 be
       -0.0054365695 0.10760663 0.27966973 -0.2280864
0000c0 b6 a6 e2 3c ef 10 12 3e 30 34 3d bd f5 5e 31 3d
       0.027667385 0.14264272 -0.046192348 0.04330345
0000d0 95 84 5a be 3d 2b 22 bd a0 31 2f bd 5f 1a fd bd
       -0.21339639 -0.039592016 -0.042771935 -0.123585455
0000e0 4c 4f 43 3e 6d 74 2e bd 26 d5 fa 3b 13 37 a6 bd
       0.19073218 -0.0425915 0.007654804 -0.08115973
0000f0 93 a1 b3 3e 5b cc 00 3e 81 81 d4 bd 11 b6 b8 3c
       0.3508421 0.12577955 -0.103762634 0.022547754

fc2.weight f4 [32, 64]
000000 4f ca a6 bd 62 ec 5e 3d 8d 06 05 3d 53 22 5c 3c
       -0.08144056 0.05442465 0.03247695 0.013435918
000010 d0 d8 4c 3d 7a c8 f0 3c 58 85 23 be 69 81 3b be
       0.050011456 0.02939247 -0.15968835 -0.18311085
000020 87 e4 e4 bd 20 7a 67 bd fa 45 4c 3d 9e 0f 2a be
       -0.11176401 -0.05651295 0.049871422 -0.1660752
000030 c7 d8 84 3d e7 8a 89 3e 1d 7b c0 bd ba 6b 91 bd
       0.064866595 0.26863787 -0.09398482 -0.07100625
000040 f7 b7 52 bf 7e 1a a2 3d db 49 96 bd 1f df 97 3e
       -0.8231196 0.07915209 -0.073383056 0.29662415
000050 d7 61 09 be 95 fb 3e 3f 67 10 b7 bb e1 62 a7 bf
       -0.13416229 0.74602634 -0.005586672 -1.307705
000060 a1 96 60 3d 0a 76 9b be 13 db 18 3e fa f1 11 be
       0.05483115 -0.30363494 0.1492732 -0.14252463
000070 a7 a6 8b 3d c2 dd 92 3d 60 db 7e 3c 54 af 76 be
       0.06818896 0.07171203 0.015555233 -0.2409032
000080 9e f2 92 3e 9b 44 c3 3e 44 72 e2 bd a0 6e 7b be
       0.28700727 0.3813828 -0.11056951 -0.24553919
000090 30 4b ff be 94 2a 41 be 99 7a f7 3c bd be 47 be
       -0.4986205 -0.18863899 0.030209826 -0.19506355
0000a0 d8 84 59 be dc 02 c1 3d b8 52 b2 3e 3f 19 28 3e
       -0.21242082 0.094243735 0.34828734 0.1641588
0000b0 bd 0d ec 3d 71 3f a4 be b6 9a 49 be 6a e0 89 3d
       0.11526058 -0.32079652 -0.19687924 0.06732257
0000c0 5b 3d 9d be df 4b ab 3e 8c 29 79 be 8e ab 56 bc
       -0.30710873 0.33456323 -0.24332255 -0.013102425
0000d0 24 78 d5 bd 15 a1 ac be 6f 1a 92 bb 2f 0f a3 3d
       -0.10423306 -0.33716646 -0.0044587175 0.079618804
0000e0 08 c7 0d bc 11 48 2b be a8 a7 66 be 2c bd 42 3e
       -0.00865341 -0.1672671 -0.22524893 0.19017476
0000f0 96 2f b6 3d ab d1 4f 3e 61 41 8a bd df b6 0c 3e
       0.08895795 0.20294826 -0.06750751 0.13741635
000100 3a 75 8c 3d 34 62 ba 3c 95 57 f4 bd 87 fb 1a be
       0.06858297 0.022751905 -0.119307674 -0.15135013
000110 fb 30 47 3e 37 bb 23 3e 3c 65 8c 3e 72 c4 2c 3d
       0.19452278 0.15989386 0.27420986 0.042179532
000120 75 78 86 bd 90 89 85 3d db a7 27 be 2d 5b 36 3e
       -0.06565944 0.065203786 -0.16372626 0.17808218
000130 18 35 f2 be f4 c6 8a 3d d6 71 3d be e1 cb 32 3d
       -0.47306132 0.067762285 -0.18500456 0.043651465
000140 31 2c e5 3e 1c 89 c6 bd 3f 7d 24 be 39 19 2c 3e
       0.44760278 -0.0969412 -0.16063403 0.16806497
000150 62 e4 81 bd 6a 9b 32 bf 72 35 9d bd 87 cd 0b bf
       -0.06342389 -0.69768393 -0.076762095 -0.54610485
000160 e1 c0 2d 3e cc 1c a4 be e4 87 e9 3c 5d 5c 42 3d
       0.16968109 -0.3205322 0.02850718 0.047451366
000170 3f 3a de 3d 87 3f fb bc d3 f0 40 3f 5c 62 1a 3c
       0.10850953 -0.03066994 0.7536747 0.009422865
000180 7e 84 0a bd ac 68 4b bf bb 82 be be a6 ad f8 3a
       -0.03381776 -0.7945659 -0.37209114 0.001897265
000190 3b 03 0c 3e 1e 6b d1 3e 12 8f 78 3e 5b 13 c7 be
       0.13673107 0.40902036 0.24273327 -0.38881955
0001a0 d0 08 08 3e 42 2f b3 3d 55 52 f1 3d 9b 28 96 be
       0.13284612 0.08749248 0.11783282 -0.29327855
0001b0 db f9 de be bd 6c 28 be 1b 15 2d be 32 fe a9 3c
       -0.4355 -0.1644773 -0.16902582 0.020751093
0001c0 e8 80 86 be 28 91 c0 bd fc 10 a9 be ae d6 5d be
       -0.26270223 -0.09402686 -0.3302077 -0.21663925
0001d0 55 7d 02 be b8 69 55 3f 1c ee 8a 3d e8 49 ce be
       -0.12743123 0.8336444 0.06783697 -0.4029076
0001e0 44 0b c1 3c 03 24 3c be 69 57 52 bd 3a 76 f5 3e
       0.023564942 -0.18373112 -0.051352892 0.47941762
0001f0 c0 47 c7 3c b6 69 b8 3c 3e 2b c6 bc 01 fa 7e be
       0.024326205 0.022511344 -0.024190541 -0.24900056
000200 50 29 9d bd a6 4e 7c bd 2f c4 e4 bd f3 81 1b 3e
       -0.07673895 -0.061598442 -0.111702316 0.1518629
000210 36 30 c9 bd f5 89 51 3e 37 33 88 bd 16 ca 97 3e
       -0.09823649 0.20462783 -0.066503935 0.29646367
000220 5c 4d a0 3d 2d 7c 68 be 34 ee 12 be 78 7e 1d 3e
       0.07827255 -0.2270362 -0.1434868 0.15380275
000230 97 96 1c be 58 0c 19 3e ad ba 11 3e 0c 58 d0 bd
       -0.1529182 0.14946115 0.14231367 -0.101730436
000240 dd 6d fc 3c 1f 03 37 3d 74 3d 84 3d 64 cc 22 bf
       0.030814106 0.04468071 0.06457034 -0.63593125
000250 46 f7 56 be 8d ac 35 3c bc 53 2b be 8a 70 62 bf
       -0.20992765 0.011088503 -0.16731161 -0.8845297
000260 41 de 5f bc 19 27 69 3e 1d 5c bb 3e d6 ff e4 3d
       -0.013663829 0.22768821 0.36593714 0.11181609
000270 d4 3c 3c bd bb b2 96 3e 17 05 1f bf 30 f6 3e bd
       -0.045956448 0.29433236 -0.6211714 -0.0466215
000280 f5 d8 28 3d e2 d0 67 be 1d 52 21 be d1 56 cb 3d
       0.04122253 -0.22638276 -0.1575398 0.09928668
000290 b3 a2 60 bc 73 bd d8 bd 41 59 79 3d ae 2f d9 3c
       -0.0137106655 -0.105830096 0.060876135 0.026511993
0002a0 79 a7 44 3d c9 50 19 be 6a 8a 27 bb 8b 5b 84 bd
       0.048011277 -0.14972223 -0.002556468 -0.06462773
0002b0 a2 85 0b be e2 79 25 3d 53 39 2f 3a 38 dd 06 3e
       -0.13625196 0.04039944 0.0006684262 0.13170326
0002c0 36 f8 e1 bb fa 1c 82 be 09 80 59 bc 6b 77 46 3e
       -0.006896044 -0.25412732 -0.013275155 0.19381492
0002d0 93 99 85 be 56 7c d5 be e7 f6 b9 be 3d 7d df 3d
       -0.2609373 -0.41696423 -0.36321184 0.10912559
0002e0 0d 31 d1 be 21 f1 06 bf 33 b2 c5 3e b5 e8 43 3d
       -0.40857735 -0.52711684 0.38612518 0.04782935
0002f0 ea 68 71 bd a8 4b 5e 3d 14 00 44 bd 65 ed ac bc
       -0.058937944 0.05427137 -0.047851637 -0.021109292
000300 7c 6b 6c 3e 57 75 cb bd 71 49 dc 3e b3 ff 8d 3d
       0.23087877 -0.0993449 0.4302478 0.069335364
000310 27 f3 d1 bd 43 69 42 bd 3b c5 51 be ed c4 37 bd
       -0.10251456 -0.047463667 -0.20485394 -0.044865537
000320 9a fc f1 3d 04 4b 90 be c0 59 53 3e d2 d0 00 bc
       0.11815758 -0.28182232 0.20639706 -0.007862287
000330 8e f5 b9 be a2 b3 ac 3d 7b 8e 52 bf c9 8f c4 be
       -0.36320156 0.084327 -0.8224866 -0.3839095
000340 a2 74 37 bd 50 01 14 3d 82 fd 87 be fc 36 32 3e
       -0.044788964 0.036134064 -0.265606 0.17403787
000350 44 53 c8 bd f1 16 e9 3e bc 37 ff bd 16 33 56 be
       -0.09781507 0.45525315 -0.12461802 -0.20917925
000360 82 e6 40 3e 7c 11 25 bd 14 a1 03 3e 52 eb d8 be
       0.18837932 -0.040299878 0.12854415 -0.42367035
000370 2f 15 aa 3d 83 95 e0 be 54 65 df 3e 7a 86 b5 be
       0.08304822 -0.43864068 0.43631995 -0.3545416
000380 02 2e b6 3e 05 8c 50 be 1c 92 63 3d 63 39 76 be
       0.35581976 -0.20365913 0.055559263 -0.24045329
000390 9a c7 61 bd a4 76 44 be ab bd 06 3e b0 73 79 3e
       -0.055121996 -0.19185883 0.1315829 0.24360538
0003a0 b0 43 12 bb 9d 73 a2 bd 2f a2 a0 3e 12 28 99 be
       -0.0022318177 -0.07932208 0.31373736 -0.29913384
0003b0 80 09 07 3f e2 59 c6 3d 5f 34 6b 3c 24 02 b6 3e
       0.5274887 0.096851125 0.014355748 0.35548508
0003c0 8e 19 39 be 8f 46 85 3d 1d ea 19 3e ab 24 1f bf
       -0.18076155 0.065075986 0.15030713 -0.62165326
0003d0 d4 c8 7e 3d 7b 3a 37 3b 48 b6 8d 3c 3d f2 71 3e
       0.062203243 0.002795844 0.017298833 0.23627563
0003e0 6d 97 77 3d 15 25 00 be 23 ed b8 be 0b f2 70 3e
       0.060447145 -0.12514146 -0.3611842 0.23529832
0003f0 56 8b a3 bd df eb c4 bc 87 e4 cd be 01 d8 28 be
       -0.079855606 -0.024038253 -0.40213415 -0.16488649

fc2.bias f4 [32]
000000 94 7a eb 3d ce 61 32 bd 57 f2 1d 3e 3c d8 03 38
       0.11497989 -0.043550305 0.15424477 3.1434218e-05
000010 03 3c 05 bd 74 a1 f3 bd ec 2f 36 bd 99 79 7b 3d
       -0.032527935 -0.11896029 -0.044479296 0.06139526
000020 6c 05 37 be 36 48 fd be a9 4c 30 3f 5e 97 65 3d
       -0.17873162 -0.49469155 0.68866974 0.056052558
000030 23 87 5d 3e be 73 d4 3d 5c 00 39 3e d8 91 54 3d
       0.21633582 0.103736386 0.18066543 0.0518969
000040 f7 b0 af bd 19 b2 b2 3e 16 77 e3 bd 2e 15 3c be
       -0.08578675 0.34901503 -0.11106698 -0.18367454
000050 11 9d db 3d 9c df 1b 3e d8 cd 29 3f 06 af 8d 3e
       0.107233174 0.15222019 0.6632972 0.27672595
000060 f2 e9 83 3e c8 4c 08 be c4 ea f0 3c d9 2f da 3d
       0.25764424 -0.1331054 0.02940882 0.106536575
000070 2d 9b 2f 3f 14 81 2e bd 6d 70 41 3e a5 59 57 3f
       0.68596154 -0.042603567 0.18890543 0.8412116

fc3.weight f4 [4, 32]
000000 08 fe 00 3e 89 71 25 3e 34 e7 bf 3d 91 58 0b 3d
       0.12596905 0.16156591 0.0937027 0.03402001
000010 27 d0 30 3c 41 b9 73 be c6 0b ca 3d 28 58 20 bf
       0.010791815 -0.23801138 0.09865527 -0.62634516
000020 72 23 5f be a7 f6 88 be 9d 73 8a 3e 5d 59 46 3e
       -0.21790865 -0.2675068 0.2704133 0.19370027
000030 1e ab d7 3e ff 90 09 3e 07 2e c2 3e e0 e8 6d bd
       0.4212274 0.13434218 0.3792574 -0.058083415
000040 13 99 1c be 85 8b 83 3e 68 5e 63 bd 79 bf ca bd
       -0.15292768 0.25692382 -0.055509955 -0.09899802
000050 be 04 c7 be 79 ec be 3d c0 2d 3f 3e e7 c6 ad 3c
       -0.38870806 0.09322447 0.18669796 0.021213008
000060 b1 ea 94 3e 82 af 87 3d 74 4b 6e bd 93 0c a9 3d
       0.29085305 0.06625272 -0.058177426 0.082543515
000070 85 0e 2d 3e 5f 69 06 bd e9 17 ec 3d 78 47 91 3e
       0.1690007 -0.032815333 0.11527998 0.2837484
000080 56 cf 64 3e ac 42 79 bc 80 be 54 3d cf d1 d0 bd
       0.22344717 -0.01521365 0.051939487 -0.10196268
000090 ca 13 21 3d 23 38 95 be 55 84 09 3e ac 3a 00 be
       0.039325513 -0.2914439 0.13429387 -0.12522382
0000a0 e4 c7 89 bd 6f dc c6 bd 33 c1 55 3e 54 7d 33 3e
       -0.06727579 -0.09710013 0.20874481 0.17528278
0000b0 80 00 f1 3e 69 f0 13 bf f4 b7 aa 3e fa 24 f0 bb
       0.47070694 -0.5778871 0.3334347 -0.0073286267
0000c0 e8 a9 ce bd f8 91 9e 3e 30 87 48 3d 7d 04 13 3e
       -0.10091001 0.3097074 0.04895705 0.14357181
0000d0 f9 d3 29 3e 7d b5 9f 3d af 4f 8a 3e 74 57 75 3d
       0.16584767 0.07798288 0.2701392 0.059897855
0000e0 22 5c d4 3e ff 43 02 3c d6 5a 65 bd a2 97 16 3e
       0.41476542 0.007950782 -0.05599483 0.14706281
0000f0 f9 7e 61 3e ce d5 91 bd 0a 85 19 3e 6e ca 79 3e
       0.22021092 -0.07120858 0.14992157 0.24393627
000100 56 0c ae 3d 31 bd 3d be 3a 31 a3 3c 68 4d d4 bd
       0.08498447 -0.18529202 0.019920934 -0.103663266
000110 e6 32 7d 3e 79 6b 35 be dc 66 2e be d3 d3 be be
       0.24726447 -0.17716779 -0.17031425 -0.37270984
000120 7b 59 8e be 94 ab c5 bd 06 5b a2 3d e1 7e c1 3e
       -0.27802643 -0.096518666 0.079275176 0.37792113
000130 cf 8d 8a 3e a3 30 d5 bd f9 96 9e 3e 2c 35 ef 3c
       0.27061316 -0.10409667 0.30974558 0.029200159
000140 55 c8 e1 bd c3 39 f5 3d 35 16 c8 3d c9 0a 48 3e
       -0.110245384 0.11973908 0.09769861 0.19535364
000150 99 49 8e 3d cb 14 9a be 72 ca ee 3d 66 a3 ba 3d
       0.069476314 -0.3009399 0.11659707 0.09113197
000160 c2 63 a5 3e a9 e1 fe bc 04 1f 66 be b6 3a 9e 3e
       0.32302672 -0.031113463 -0.22472769 0.30904168
000170 ba d0 95 3e 81 c3 11 3e 30 6b 5d 3e 37 95 c6 3e
       0.29260808 0.14234735 0.2162292 0.38785717
000180 fc 14 28 3f e6 72 43 3e 41 42 aa 3e bc ec 38 bd
       0.6565702 0.19086799 0.33253673 -0.045147642
000190 50 77 3f 3e 62 20 85 3b 47 2d b3 bd c8 a5 0f bf
       0.18697858 0.004062698 -0.0874887 -0.5611234
0001a0 b8 f0 9f bd 7a 2e 38 be 8f 04 6a 3e 8c 23 41 3e
       -0.07809585 -0.1798648 0.22853301 0.18861216
0001b0 8d 4d dc bd 7c 52 87 3e e5 30 c1 3d e4 d6 67 be
       -0.10756979 0.26430118 0.09433154 -0.22640568
0001c0 d6 07 0b bb 13 80 51 ba d6 a6 92 3e 96 03 e9 3d
       -0.0021214387 -0.0007991802 0.2864291 0.11377637
0001d0 2e e1 63 be 35 37 19 3c 4c cb 96 3e d9 e4 a9 3e
       -0.22253868 0.009351541 0.29451978 0.3318241
0001e0 11 9b 3b 3e 19 f1 c4 3e 8a b5 e3 3d b2 7e 37 be
       0.18320872 0.38465193 0.1111861 -0.17919424
0001f0 38 00 7e 3e dd 84 ce 3d 65 d2 5a 3e fa 5c 4a 3e
       0.24804771 0.100839354 0.21369322 0.1976203

fc3.bias f4 [4]
000000 4f 36 31 3f 89 a0 ed 3e aa b2 14 3f 27 13 f9 3e
       0.69223493 0.4641154 0.5808512 0.48647425
