checkpoints/model_dqn_128_goal.pt (torch_old, 46069 bytes, 6 tensors)

fc1.weight f4 [64, 37]
0	0x3db421c9	0.087955065
1	0xbb15ad37	-0.002283884
2	0xbd10f5cd	-0.035390664
3	0xbe984451	-0.2973962
4	0xbe19cdc0	-0.15019894
5	0x3e811118	0.25208354
6	0xbdd22b6b	-0.102621876
7	0x3e55d100	0.20880508
8	0xbe9eefb0	-0.31042242
9	0x3df08cda	0.11745615
10	0xbe0209f7	-0.12699114
11	0xbc208857	-0.009798131
12	0x3dc1f744	0.0947099
13	0xbe163b75	-0.14671119
14	0xbd9579ed	-0.07298646
15	0x3e663e7a	0.2248477
16	0xbda0c9c6	-0.07850985
17	0x3dd047a6	0.10169916
18	0xbdff02b0	-0.124516845
19	0xbe15367b	-0.14571564
20	0x3e73106a	0.2373673
21	0x3d8ef08a	0.06979473
22	0xbd30e29d	-0.043184865
23	0xbcf27d70	-0.029600829
24	0xbf1c3a6d	-0.6102665
25	0xbd59b182	-0.0531478
26	0x3e4978cf	0.19674991
27	0xbe044b28	-0.12919295
28	0xbe0688b8	-0.13138092
29	0x3e6884ec	0.22706956
30	0xbe7b11d4	-0.2451852
31	0x3e285149	0.16437258
32	0x3d86ac92	0.06575884
33	0xbc8726b9	-0.016497957
34	0xbca1fcf2	-0.019773934
35	0xbc51b9a1	-0.012800605
36	0xbc31bced	-0.010848266
37	0x3e5eea94	0.21769172
38	0x3dbefde0	0.093257666
39	0x3dea7699	0.11448402
40	0xbc48174b	-0.012212585
41	0xbf01f360	-0.50761986
42	0x3d779745	0.060446996
43	0xbe071fc0	-0.13195705
44	0xbd7ca3ec	-0.061679766
45	0xbeb75502	-0.35807043
46	0xbf006d24	-0.50166535
47	0x3d8b9faf	0.068175666
48	0xbbb550f4	-0.005533332
49	0x3db5a89c	0.0887005
50	0x3d87d15c	0.06631729
51	0x3e5f7698	0.21822584
52	0x3e1ba6cd	0.15200348
53	0x3c8a2261	0.016862096
54	0x3dbe55d0	0.09293711
55	0xbe6c9771	-0.23104645
56	0xbecae6d7	-0.39629242
57	0xbe1cd22e	-0.15314552
58	0x3c485665	0.012227629
59	0xbd99f386	-0.075171515
60	0x3e10544c	0.14094657
61	0x3e11f72f	0.1425445
62	0xbe899d52	-0.26877838
63	0x3d6acac7	0.05732229
64	0x3e90531c	0.28188407
65	0xbcef1f78	-0.02918981
66	0xbc78be4a	-0.015182087
67	0x3d58e6f9	0.052954648
68	0x3de624ff	0.11237525
69	0x3dc77cf1	0.097406276
70	0x3d7e6b0e	0.062113814
71	0xbe13ecf1	-0.14445855
72	0x3e0b77ca	0.13619915
73	0x3d2c61fd	0.042085636
74	0x3e0c747a	0.13716307
75	0x3dba6233	0.09100761
76	0x3e13213e	0.1436815
77	0xbe7ee8c6	-0.24893484
78	0x3e2baca6	0.16765079
79	0xbd80b86c	-0.06285176
80	0xbe89c668	-0.26909184
81	0x3e8c2f91	0.2738004
82	0x3d37b7b6	0.044852935
83	0xbc72cda6	-0.014819538
84	0x3e1f830b	0.15577333
85	0xbe8f5d4f	-0.28000876
86	0xbdd74ed0	-0.10513079
87	0xbb060531	-0.0020449872
88	0xbf0e875d	-0.556753
89	0xbd7e6996	-0.062112413
90	0x3d6fe10c	0.05856423
91	0x3e272197	0.16321407
92	0xbd29f545	-0.041493673
93	0x3e86c186	0.26319522
94	0xbe9b5a1c	-0.30342185
95	0xbca90011	-0.020629914
96	0x3cf02052	0.029312287
97	0x3e16245a	0.14662305
98	0xbdd00d74	-0.10158816
99	0xbda88f55	-0.082304634
100	0x3e41df2c	0.1893279
101	0x3e3c9c00	0.18418884
102	0xbec879e8	-0.39155507
103	0xb9b6271d	-0.00034742887
104	0xbe29549b	-0.1653618
105	0xbd0233c5	-0.031787653
106	0xbe4e7bfe	-0.20164487
107	0xbd353fb2	-0.044250198
108	0x3e3e7ce6	0.18602332
109	0x3dd8657a	0.1056623
110	0xbcc49c78	-0.024000391
111	0x3e6f5396	0.23371729
112	0xbe8f2740	-0.27959633
113	0x3e5eae8c	0.21746272
114	0xbe8f8cac	-0.28037012
115	0xbeb04bcb	-0.34432825
116	0xbdd2b9c3	-0.102893375
117	0xbca1e257	-0.019761248
118	0xbe4d8138	-0.20068824
119	0x3e84762f	0.25871417
120	0xbe80f8e8	-0.251899
121	0xbdb7db44	-0.089773685
122	0xbe3cb5ea	-0.1842877
123	0x3e53c332	0.2067993
124	0xbdc8fa0f	-0.0981332
125	0xbcf19aad	-0.0294927
126	0xbe078cac	-0.13237256
127	0xbe02adcf	-0.12761615
128	0x3dfe4d37	0.12417071
129	0xbe5f0261	-0.21778251
130	0x3d6338e4	0.055474177
131	0x3dbad137	0.09121936
132	0xbe14cf5e	-0.1453223
133	0xbe3c89c3	-0.18411927
134	0x3e4c3fbe	0.1994619
135	0xbe022fc0	-0.12713528
136	0x3d68084e	0.056648545
137	0x3e088e6a	0.13335577
138	0xbc0b9949	-0.008520433
139	0xbe1f1cb8	-0.15538299
140	0x3e07feeb	0.13280837
141	0x3db5ee86	0.08883385
142	0x3d47804d	0.04870634
143	0x3dcc281b	0.09968587
144	0xbed5b1a2	-0.41737086
145	0xbd89cb19	-0.06728191
146	0x3dfcb3e8	0.12339002
147	0xbbb8e986	-0.0056430725
148	0xbcd6fda8	-0.026244
149	0xbd93be54	-0.072140366
150	0xbdf2434f	-0.11829244
151	0xbd9be5ea	-0.07612212
152	0xbd889583	-0.06669142
153	0x3ebb277c	0.36553562
154	0xbf1a8aad	-0.6036785
155	0xbec298de	-0.38007253
156	0xbeab4952	-0.33454376
157	0xbfb24912	-1.3928549
158	0x3e15d5f0	0.14632392
159	0xbccb7d76	-0.024840098
160	0xbdc7069b	-0.09718057
161	0xbd81ad44	-0.06331876
162	0xbe84a149	-0.259043
163	0xbd009079	-0.03138778
164	0xb98a7bba	-0.00026413595
165	0xbd43bc93	-0.04778726
166	0xbd6c041c	-0.057621107
167	0x3d9a5aa5	0.0753682
168	0xbda45f56	-0.080259964
169	0x3d88464e	0.066540346
170	0x3d8d2191	0.06891168
171	0x3dc1d066	0.09463577
172	0x3e1fc2d4	0.15601665
173	0x3db70a2b	0.08937486
174	0xbbf61b2d	-0.007510564
175	0x3d957734	0.07298127
176	0x3dd64309	0.10462005
177	0x3e5f81f1	0.21826912
178	0x3db16f67	0.086638264
179	0x3d2d26f1	0.042273466
180	0x3d958e5b	0.07302543
181	0x3e5e843f	0.21730135
182	0x3de2f70b	0.11082276
183	0xbc0d8cae	-0.008639498
184	0x38e88c28	0.00011088728
185	0xbda37d98	-0.079829395
186	0x3c318d39	0.010836893
187	0xbc399b92	-0.011328595
188	0xbc5e7b59	-0.013579213
189	0x3d5fedc3	0.054670107
190	0x3e1d6835	0.15371783
191	0x3de98abf	0.11403417
192	0xbcbdc13d	-0.023163432
193	0xbe0ea3f9	-0.13929738
194	0xbec70992	-0.3887449
195	0xbdf4ef49	-0.119597025
196	0xbca2edb6	-0.01988874
197	0xbcd51f52	-0.026015911
198	0x3c0e7543	0.00869495
199	0x3e1a9ae3	0.15098147
200	0xbe135595	-0.14388116
201	0x3df17deb	0.11791595
202	0xbc56f56d	-0.0131200375
203	0x3dbd5f66	0.092467114
204	0x3e1c5677	0.15267359
205	0xbc9e7dc2	-0.019347075
206	0x3d9362f8	0.07196611
207	0x3e38f54c	0.18062323
208	0x3e155dc2	0.14586547
209	0x3e34e6cf	0.17666171
210	0x3e641dcd	0.22276993
211	0xbe956234	-0.29176486
212	0xbeaa7de3	-0.3329917
213	0xbec01157	-0.3751323
214	0xbfb160bd	-1.3857647
215	0xbc7e58f4	-0.015524138
216	0x3c23474e	0.009965731
217	0xbd00e1f1	-0.031465475
218	0xbc5c6402	-0.013451578
219	0xbde73b4d	-0.112906076
220	0xbc88095e	-0.01660603
221	0x3d2d8aff	0.042368885
222	0x3e83588d	0.25653496
223	0x3db32d0c	0.087488264
224	0xbdf9ce58	-0.1219756
225	0xbe8d534c	-0.27602613
226	0xbf18e466	-0.5972351
227	0xbd88bea4	-0.06676987
228	0xbda83554	-0.082132965
229	0xbcbd87b1	-0.023135992
230	0x3e5ee6c1	0.21767713
231	0x3debda64	0.11516264
232	0x3d13deaf	0.03610104
233	0x3e4be3b5	0.19911082
234	0x3e1e0889	0.15432943
235	0xbd90b0cb	-0.070649706
236	0x3ed93dd5	0.42429987
237	0x3db65cd2	0.08904423
238	0xbd8cd90b	-0.06877335
239	0xbc3ef0dd	-0.011654106
240	0x3be3196d	0.006930521
241	0x3e24d80a	0.16098037
242	0x3e3ec523	0.18629889
243	0xbcaf44d9	-0.021395134
244	0xbd7a872a	-0.06116406
245	0xbde27f0f	-0.11059391
246	0x3cf4100d	0.02979281
247	0xbd3485df	-0.044072982
248	0xbd8e7761	-0.069563635
249	0xbc87bb1d	-0.016568715
250	0xbd68215b	-0.056672435
251	0x3d955f73	0.07293596
252	0xbb3f2f54	-0.0029172497
253	0x3dc47617	0.09592836
254	0xbce97da5	-0.028502295
255	0xbc92ddf7	-0.017928107

fc1.bias f4 [64]
0	0x3e312cd4	0.17302257
1	0x3d0f8962	0.035043128
2	0xbe1998cd	-0.14999695
3	0xbd7d0535	-0.061772544
4	0x3e63b5e4	0.22237355
5	0xbc389024	-0.011264835
6	0xbcf6db47	-0.030133856
7	0x3d6755ba	0.05647824
8	0xbc45e607	-0.012078769
9	0xbe1e3cb7	-0.15452848
10	0x3dc2b1c5	0.09506563
11	0x3e349551	0.17635085
12	0x3dc86e05	0.097866096
13	0x3df239b6	0.11827414
14	0xbcc13aa4	-0.023587532
15	0xbe23640d	-0.15956135
16	0x3d490a1b	0.049081903
17	0xbd462511	-0.048375193
18	0xbb9c5842	-0.0047712633
19	0xbe3ac1ef	-0.18238042
20	0xbde2dc08	-0.11077124
21	0x3dca5697	0.09879797
22	0x3ca81e36	0.020522218
23	0xbd387439	-0.045032714
24	0xbcef889b	-0.029239943
25	0x3e13f259	0.14447917
26	0xbd88032a	-0.066412285
27	0xbe182855	-0.14859135
28	0x3e3a88de	0.18216273
29	0x3dc46dd6	0.09591262
30	0xbe1bf0b5	-0.15228541
31	0xbe306296	-0.17225108
32	0x3ddd304b	0.10800227
33	0xba2b4532	-0.0006533443
34	0xbdcac117	-0.0990011
35	0x3dd45e66	0.103695676
36	0xbda76926	-0.08174352
37	0x3daac09c	0.083375186
38	0xbe00dcc7	-0.1258422
39	0xbe3099ea	-0.17246214
40	0xbd96db08	-0.07365996
41	0xbcf67483	-0.030084854
42	0xbe11d4d4	-0.14241344
43	0x3e4318f7	0.19052492
44	0xbd6ab34b	-0.057299893
45	0xbdab2ad1	-0.08357776
46	0x3d9050e0	0.07046676
47	0xbe2448c2	-0.1604338
48	0xbe2afd28	-0.16698134
49	0x3d8ecc77	0.06972592
50	0xbe4303c3	-0.19044404
51	0x3e263a3d	0.16233154
52	0xbbd7f66d	-0.0065906555
53	0xbe27f946	-0.16403684
54	0xbe306667	-0.17226563
55	0x3d269b4b	0.040675443
56	0x3e294561	0.16530372
57	0xbcb93423	-0.022607869
58	0xbdfc0e3b	-0.12307402
59	0xbd708e34	-0.058729365
60	0x3d6dff5e	0.058104865
61	0x3cd8a50c	0.026445888
62	0x3d017059	0.031601284
63	0x3dcbb21e	0.099460825

fc2.weight f4 [128, 64]
0	0x3e247e57	0.1606382
1	0x3e20135a	0.15632382
2	0xbd9e8676	-0.0774049
3	0x3e0b6fa0	0.136168
4	0x3dc75777	0.097334795
5	0xbe5537a8	-0.20822012
6	0xbe3dc1a1	-0.18530895
7	0x3e072814	0.13198882
8	0x3e10fbb7	0.14158522
9	0xbe84ae02	-0.25914007
10	0xbdc016c3	-0.093793415
11	0xbe02dc5e	-0.12779376
12	0xbed966e9	-0.42461327
13	0x3e1e1092	0.15436009
14	0x3da1a6c5	0.07893137
15	0xbd8b5611	-0.06803525
16	0xbcee094e	-0.029057171
17	0xbeb13413	-0.34610042
18	0xbdbd34ba	-0.092385724
19	0xbc8e9951	-0.017407091
20	0x3da4c7d0	0.08045924
21	0x3db3ecc5	0.087853946
22	0x3db22ed1	0.08700336
23	0xbe095473	-0.13411121
24	0xbd761fd3	-0.060088944
25	0xbe5f5829	-0.21810974
26	0x3ee69a24	0.45039475
27	0xbe00cf67	-0.12579118
28	0xbc3c2127	-0.0114825135
29	0x3dc2c129	0.095094986
30	0xbdec896c	-0.11549649
31	0xbe73d954	-0.23813373
32	0xbdfe855c	-0.1242778
33	0xbd2d5a40	-0.042322397
34	0xbd1567d0	-0.036475956
35	0xbb2122ce	-0.0024587396
36	0xbe82501c	-0.25451744
37	0x3e5c23f2	0.21498087
38	0x3e71cb0b	0.23612611
39	0xbeb45dae	-0.35227722
40	0xbd896072	-0.067078486
41	0xbe2ad508	-0.16682827
42	0x3d031704	0.03200437
43	0xbe1f5c76	-0.15562615
44	0x3e011bcb	0.12608258
45	0x3cb97594	0.022639073
46	0xbe35afc8	-0.17742836
47	0xbc67d597	-0.014150045
48	0x39b4ab98	0.00034460123
49	0xbe07b1cb	-0.13251416
50	0x3e0a8f34	0.1353119
51	0xbdc11613	-0.094280384
52	0xbe8fb03a	-0.28064138
53	0x3e2cfc9a	0.16893235
54	0xbdcb2fd0	-0.09921229
55	0x3d4bb29a	0.049730875
56	0xbdf0daa2	-0.11760451
57	0xbe599683	-0.21248822
58	0x3e2e9641	0.17049505
59	0x3d72c5b5	0.05927058
60	0x3e1e8849	0.15481676
61	0x3d928232	0.07153739
62	0xbcb11792	-0.021617685
63	0x3d71d2ad	0.059038807
64	0x3e0d1707	0.13778315
65	0x3e710b77	0.2353953
66	0xbe8dce8a	-0.2769664
67	0xbe58e1ab	-0.21179835
68	0x3df958ff	0.12175178
69	0xbd37cd15	-0.044873316
70	0x3d7698f1	0.06020445
71	0x3e3a1e7b	0.1817569
72	0x3be1ca1b	0.006890548
73	0xbd1e1a88	-0.03859952
74	0xbd7a7fa8	-0.0611569
75	0xbd53d8c5	-0.0517204
76	0x3c4d28be	0.012521921
77	0x3dd664e9	0.10468466
78	0xbd5eaa0d	-0.05436139
79	0x3df261e6	0.11835079
80	0x3e206531	0.15663601
81	0x3c7ea24b	0.015541623
82	0xbe08e939	-0.13370217
83	0xbe40390c	-0.18771762
84	0x3c3c9508	0.011510141
85	0xbefc6285	-0.49293914
86	0xbd729648	-0.05922535
87	0xbd16f72e	-0.036856823
88	0xbdbc6954	-0.09199777
89	0x3d9dc2a2	0.07703139
90	0xbd0e6273	-0.034761857
91	0xbe6dd99f	-0.23227547
92	0x3dadcb40	0.084860325
93	0xbd02e6ae	-0.031958275
94	0x3e5be1af	0.2147281
95	0xbe3a17c3	-0.18173127
96	0xbd673abe	-0.056452505
97	0xbd1d73b8	-0.038440436
98	0x3d9ed3e8	0.07755262
99	0x3d2f6e08	0.042829543
100	0xbe1f04fe	-0.15529248
101	0x3d1d1f82	0.038360126
102	0x3ee20316	0.4414298
103	0xbde2bfeb	-0.11071762
104	0xbd9c117e	-0.07620524
105	0x3e0ff243	0.1405726
106	0x3ea599e6	0.32343978
107	0xbde62d60	-0.11239123
108	0x3cedf3be	0.02904689
109	0xbe238781	-0.1596966
110	0xbe1b80d4	-0.15185863
111	0xbd0210ac	-0.03175418
112	0xbe0c9630	-0.13729167
113	0x3db5af60	0.08871341
114	0xbe60295d	-0.21890779
115	0x3de45042	0.111481205
116	0xbd8ccd01	-0.06875039
117	0xbdcb3db1	-0.09923876
118	0x3d29a3f3	0.04141612
119	0xbd6763ba	-0.05649159
120	0xbda94f75	-0.08267108
121	0x3b99a23b	0.004688529
122	0x3e3c77fe	0.18405148
123	0x3e5b7dd3	0.21434717
124	0xbef813dc	-0.48452652
125	0x3e4a3307	0.19746028
126	0xbe42f05f	-0.19037007
127	0xbe9813d9	-0.29702643
128	0xbded1c46	-0.11577658
129	0xbe623608	-0.22090924
130	0x3c925b75	0.017865876
131	0x3b631de5	0.003465527
132	0x3cd0a0dc	0.025467329
133	0x3db5dc52	0.088799134
134	0xbdcfbc6b	-0.1014336
135	0x3cd7cbe0	0.026342332
136	0x3da8e2cf	0.08246385
137	0xbdb08e0f	-0.086208455
138	0x3dd677b9	0.10472054
139	0x3c3918af	0.011297389
140	0x3d4d42f0	0.050112665
141	0x3e0ff988	0.14060032
142	0x3cd9e436	0.026598077
143	0x3d1aaa72	0.037760206
144	0xbde3ce04	-0.11123279
145	0x3d94712d	0.07248149
146	0x3d85469a	0.06507607
147	0xbe635efa	-0.222042
148	0xbdc5d403	-0.09659579
149	0x3d820c61	0.06350017
150	0xbd204dfc	-0.03913687
151	0x3d110ab3	0.035410594
152	0x3cc87a89	0.024472492
153	0x3e0fab62	0.14030221
154	0x3e374ed3	0.17901163
155	0x3d8a2d3f	0.06746911
156	0x3d9f80bf	0.07788228
157	0x3ea0e358	0.3142345
158	0x3cc7d2b8	0.02439247
159	0xbc9bb27b	-0.019006005
160	0x3cb5600e	0.022140529
161	0xbd55f43b	-0.05223487
162	0xbde0ec70	-0.10982597
163	0x3df6eb22	0.12056567
164	0x3d6f871c	0.05847846
165	0x3e0ec3de	0.13941905
166	0x3dbcb587	0.09214311
167	0x3d3b8a3a	0.04578612
168	0x3e0e5d70	0.13902831
169	0xbca78df9	-0.02045344
170	0xbe88d54e	-0.2672524
171	0xbd198ea0	-0.037489533
172	0xbe1157e1	-0.1419368
173	0xbe0dc33f	-0.13844012
174	0x3ce608b4	0.028080322
175	0x3bda35ca	0.006659244
176	0x3c63b54e	0.013898207
177	0xbe3e4ce9	-0.18584026
178	0xbc08a2d4	-0.0083396025
179	0xbdca4647	-0.098766856
180	0xbdedcc61	-0.11611248
181	0xbd8eef08	-0.06979185
182	0xbdc08356	-0.0940005
183	0xbdfa74fb	-0.122293435
184	0x3c6ce554	0.014458973
185	0xbdfebd99	-0.12438507
186	0x3d58ace8	0.05289927
187	0x3dd0e29e	0.10199474
188	0xbb817636	-0.0039508594
189	0x3a8bb24b	0.0010657994
190	0x3d086bd5	0.03330596
191	0x3c1dfc69	0.009642699
192	0xbe06c49a	-0.13160935
193	0xbdffe908	-0.12495619
194	0x3e4056f3	0.18783168
195	0xbde88ddb	-0.11355182
196	0xbe9389b4	-0.28815997
197	0xbe2880d5	-0.16455396
198	0xbec3e431	-0.38260034
199	0x3cb604a8	0.022219017
200	0xbddbfe15	-0.10741822
201	0xbd3e12bb	-0.04640458
202	0xbe9061ff	-0.28199765
203	0x3e1be128	0.15222609
204	0xbd33ded9	-0.043913696
205	0x3e4d758d	0.20064373
206	0xbe55b7f8	-0.2087096
207	0x3d7babcf	0.061443146
208	0xbedb5c0a	-0.42843658
209	0xbd8bf395	-0.06833569
210	0xbd8b7312	-0.06809057
211	0x3d894427	0.06702452
212	0xbdb13dda	-0.086543754
213	0x3e37f84a	0.17965809
214	0xbe156b4e	-0.14591715
215	0x3d384068	0.044983298
216	0x3e7e3b07	0.24827205
217	0xbe5796f2	-0.21053675
218	0xbcc901a0	-0.024536908
219	0x3cd04567	0.025423719
220	0x3d28f179	0.04124591
221	0xbe30ace3	-0.17253451
222	0x3d871917	0.065965824
223	0xbe457e92	-0.19286564
224	0xbe6c1731	-0.23055722
225	0xbdc87fe6	-0.0979002
226	0x3d43d79f	0.047813054
227	0x3e2878e4	0.16452366
228	0xbddb8a0f	-0.10719692
229	0x3dd0ae12	0.10189451
230	0x3e894997	0.26813957
231	0xbe0db4ff	-0.13838576
232	0xbe2b8dff	-0.16753386
233	0x3dfbe187	0.12298875
234	0xbbdbedc9	-0.006711696
235	0xbc22e7e6	-0.009942984
236	0xbdecd481	-0.115639694
237	0xbe06e6e6	-0.13174018
238	0xbdc2717f	-0.09494304
239	0xbe3b3d0e	-0.1828501
240	0x3dd0d0f9	0.10196108
241	0x3e0ee180	0.13953209
242	0xbe9b4bda	-0.30331308
243	0xbd49524c	-0.04915075
244	0xbe38f6ad	-0.1806285
245	0x3d3776cf	0.04479104
246	0xbcc2af67	-0.023765279
247	0xbe143e64	-0.14476925
248	0xbe1da903	-0.15396504
249	0xbeefc011	-0.46826223
250	0xbd9dd566	-0.07706718
251	0x3e932538	0.28739333
252	0xbdf405d2	-0.11915173
253	0x3e1fe71b	0.15615503
254	0xbe17a8f7	-0.14810549
255	0xbe350eea	-0.1768147

fc2.bias f4 [128]
0	0x3c2324e5	0.009957527
1	0xbdaf6964	-0.085650235
2	0x3e8600d0	0.26172495
3	0xbdc3efcb	-0.09567221
4	0x3b331281	0.0027324262
5	0x3eab3f70	0.33446836
6	0x3d4e023f	0.05029511
7	0xbd4a5c8d	-0.04940467
8	0x3d6c9a8e	0.057764582
9	0x3ebb3ddb	0.3657063
10	0x3dcfb173	0.10141268
11	0xbd628c13	-0.055309366
12	0xbd5785d8	-0.052617878
13	0xbe19c14f	-0.15015148
14	0xbce946c6	-0.02847613
15	0x3bf9b0e1	0.0076199626
16	0x3c70c9f6	0.014696589
17	0xbc1f6c3c	-0.009730395
18	0x3ed37486	0.41299838
19	0x3ca8704a	0.020561356
20	0xbd78b992	-0.06072385
21	0xbc45441c	-0.012040164
22	0xbd318f72	-0.04334969
23	0xbd65ed39	-0.056134436
24	0xbdf8eee7	-0.12154942
25	0xbd02e6f8	-0.03195855
26	0x3c54904d	0.012973857
27	0xbce65d31	-0.028120609
28	0x3d92f771	0.07176102
29	0x3ebf6018	0.37378
30	0xbd5bdd16	-0.05367764
31	0x3c4c4f9f	0.012470155
32	0xbcb30c02	-0.021856312
33	0x3ccbd54a	0.024881978
34	0x3ea18fbc	0.31554973
35	0xbd4edf55	-0.050505955
36	0xbe387464	-0.1801315
37	0x3b525cf1	0.0032098854
38	0xbe08b1f9	-0.13349141
39	0xbc9d8ee4	-0.019233175
40	0x3e2c6b86	0.16837892
41	0xbc9bf652	-0.019038353
42	0x3e548ce3	0.20756869
43	0x3d939f67	0.07208138
44	0xbda7f92d	-0.082018234
45	0x3bfef49e	0.0077806255
46	0xbd895006	-0.067047164
47	0xbe1696c4	-0.1470595
48	0xbd95babf	-0.073110096
49	0xbc8ddf9c	-0.01731854
50	0x3dd8a055	0.10577456
51	0xbd4f24d5	-0.050572235
52	0x3e91750f	0.2840962
53	0x3df196e8	0.11796361
54	0x3d285213	0.041093897
55	0x3df673ee	0.120338306
56	0x3d47c969	0.048776064
57	0xbdcfac0e	-0.10140239
58	0x3e0ad110	0.13556314
59	0xbd8d6398	-0.069037616
60	0xbba73bb5	-0.005103553
61	0x3e0bd7c8	0.13656533
62	0xbd4ebaaf	-0.050471004
63	0x3d790c71	0.06080288
64	0xbdfeb9f9	-0.12437815
65	0x3e9cac9d	0.30600443
66	0x3e054fe1	0.13018753
67	0xbe0830b7	-0.13299833
68	0xbd0fec89	-0.035137687
69	0x3d94023f	0.07226991
70	0xbdd64387	-0.104620986
71	0x3e9e5275	0.30922285
72	0xbddb24be	-0.107003674
73	0x3d98c99b	0.07460328
74	0x3d608b0f	0.054820117
75	0xbd43712e	-0.04771536
76	0x3d751259	0.05983195
77	0xbc57c753	-0.013170081
78	0xbdd5a00d	-0.10430918
79	0xbd0eab63	-0.034831416
80	0xbe288c7e	-0.16459844
81	0x3e826a06	0.25471514
82	0xbd11ee27	-0.03562751
83	0x3e60ff3c	0.21972364
84	0x3d86311e	0.06552337
85	0x3eada70c	0.3391651
86	0x3e8881e4	0.266616
87	0xbd14205f	-0.036163684
88	0xbdbd43eb	-0.0924147
89	0x3bb0de87	0.005397621
90	0xbd4b7e7a	-0.049681164
91	0x3e4495a0	0.19197702
92	0x3e3d6ab1	0.18497731
93	0x3d008260	0.031374335
94	0xbe3b0a89	-0.18265738
95	0xbdfa7cc0	-0.122308254
96	0xbe1fd0c9	-0.15606989
97	0x3d6f52ff	0.05842876
98	0x3cfc272b	0.030780395
99	0xbdc842d8	-0.097783744
100	0xbe0ee16a	-0.13953176
101	0x3d00f10f	0.03147989
102	0x3d7ea5b0	0.06216973
103	0xbe184b4c	-0.14872473
104	0xbc334284	-0.0109411515
105	0x3e0a2437	0.13490377
106	0xbc124627	-0.008927858
107	0xbd0683ba	-0.032840468
108	0xbd9795da	-0.07401629
109	0xbc9605e3	-0.018313354
110	0xbd9a3185	-0.07528976
111	0xbd957f4d	-0.07299671
112	0x3d9a05d9	0.075206466
113	0x3da2b5f0	0.07944858
114	0x3cdb014d	0.026734019
115	0x3e32ee38	0.17473686
116	0xbe17c886	-0.14822587
117	0x3cd22ce0	0.025656164
118	0x3d4dfd95	0.050290663
119	0x3d4ca094	0.049957827
120	0x3e618a4c	0.22025412
121	0x3ce585a6	0.02801783
122	0x3ecff62d	0.40617505
123	0xbe2e5a18	-0.17026556
124	0xbda75e54	-0.081722885
125	0x3d63a3bb	0.055576067
126	0xbde58827	-0.112076096
127	0xbcff791e	-0.031185683

fc3.weight f4 [4, 128]
0	0xbe2f802f	-0.17138742
1	0xbddf85ca	-0.1091419
2	0x3dcf5110	0.10122883
3	0x3ecbb8f4	0.39789546
4	0xbe337f17	-0.1752895
5	0x3db47c2c	0.088127464
6	0xbc534dae	-0.012896938
7	0xbd842db9	-0.064540334
8	0x3d0e8720	0.034796834
9	0x3e02dee1	0.12780334
10	0x3da6b5cd	0.081401445
11	0x3d0652ab	0.032793682
12	0x3e18fe2a	0.14940706
13	0x3e002f46	0.12518033
14	0x3e1a7baa	0.15086237
15	0x3de81715	0.113325275
16	0x3db62970	0.08894622
17	0x3db565c3	0.088573
18	0x3e263a8f	0.16233276
19	0x3e1fa984	0.15592009
20	0xbdd2f072	-0.102997676
21	0xbcc246ae	-0.023715343
22	0x3d012484	0.031528965
23	0xbd86bd2a	-0.06579049
24	0xbe05dd11	-0.13072611
25	0x3eb455f8	0.3522184
26	0x3d998345	0.07495741
27	0xbd2ed787	-0.04268601
28	0x3d3ab1e7	0.045579817
29	0x3dfc2482	0.12311651
30	0xbe457ca0	-0.19285822
31	0xbdac083b	-0.08400007
32	0x3e176ba0	0.1478715
33	0xbd6df224	-0.05809225
34	0x3de37a9b	0.111073695
35	0x3cd290aa	0.025703747
36	0x3e61716d	0.22015925
37	0x3d8fc75f	0.07020449
38	0xbbe4aedb	-0.006978852
39	0x3e0f4161	0.13989784
40	0xbe0f86b9	-0.14016236
41	0x3e195a2b	0.14975803
42	0xbb6a0226	-0.0035706847
43	0xbefb9274	-0.49135172
44	0x3e62ff4b	0.22167699
45	0x3d1d6451	0.038425747
46	0xbe75f5ea	-0.2401959
47	0x3d3dccf5	0.04633804
48	0xbbd77443	-0.006575139
49	0x3e8afeeb	0.27147612
50	0x3e3ac828	0.18240416
51	0xbe98968d	-0.2980236
52	0x3d8b4eba	0.06802125
53	0x3c81d414	0.015848197
54	0x3e487cf0	0.1957891
55	0x3d1d5347	0.038409498
56	0x3d465588	0.048421413
57	0xbed679a5	-0.41889682
58	0x3e5de998	0.2167114
59	0xbea03f5a	-0.31298333
60	0xbc960373	-0.018312192
61	0x3e48f64e	0.19625208
62	0x3d7dd642	0.06197191
63	0xbe36c840	-0.17849827
64	0x3e91708d	0.28406182
65	0x3dc97779	0.09837241
66	0x3dcbd168	0.099520504
67	0xbe425122	-0.18976262
68	0x3ed1f3cb	0.41006312
69	0xbe8fe3b7	-0.2810342
70	0xbdc3692c	-0.09541544
71	0x3dd3759f	0.10325169
72	0x3dc9d24b	0.09854563
73	0x3e62716c	0.2211358
74	0x3e49d7ee	0.19711277
75	0x3dd67e67	0.10473328
76	0x3e90bf3d	0.28270903
77	0x3dcdd12f	0.10049664
78	0x3d6f40d4	0.058411434
79	0x3ded4f20	0.115873575
80	0xbe166454	-0.1468671
81	0x3dd87f2c	0.10571131
82	0xbd8179a2	-0.06322028
83	0x3d50568e	0.050863795
84	0xbe164b8c	-0.14677256
85	0x3db2a649	0.087231226
86	0x3d83cca9	0.0643552
87	0xbe4adc1c	-0.19810528
88	0x3e934b06	0.28768176
89	0x3cb787ee	0.022403684
90	0xbe2dc639	-0.16970147
91	0x3d8ca773	0.06867876
92	0x3d7bf240	0.061510324
93	0x3ec24510	0.37943316
94	0xbe11f9d9	-0.14255466
95	0x3e083d42	0.13304618
96	0x3e25c7ac	0.1618945
97	0xbe8eaf97	-0.2786834
98	0x3d8026d7	0.06257408
99	0xbca8b50b	-0.02059414
100	0xbea64a70	-0.32478666
101	0xbd5875c8	-0.0528467
102	0x3e30c841	0.17263891
103	0x3e4c3f3f	0.19946001
104	0x3d10e14a	0.035371102
105	0x3ea27d1d	0.3173608
106	0x3e1f1b0e	0.15537664
107	0xbd9f8e7f	-0.07790851
108	0x3d267f68	0.040648848
109	0x3e193adc	0.1496386
110	0xbe67d5fa	-0.2264022
111	0xbe063088	-0.1310445
112	0x3d8ebff9	0.0697021
113	0xbd977828	-0.07395965
114	0x3e162be2	0.14665177
115	0x3e321942	0.17392448
116	0xbe169d7b	-0.14708512
117	0x3e448ab7	0.1919354
118	0x3ea0f937	0.31440136
119	0x3dc11c93	0.09429278
120	0x3dcce668	0.10004884
121	0x3d48183f	0.048851248
122	0x3dff5f29	0.12469322
123	0xbdce0ec5	-0.10061411
124	0xbcd5c9eb	-0.026097259
125	0x3e096d81	0.13420679
126	0xbcf4d8ea	-0.029888589
127	0xbeb1c6c5	-0.34721962
128	0xbd25a51b	-0.04044066
129	0xbdf524c1	-0.11969901
130	0x3d9d7f1a	0.07690258
131	0x3e49861b	0.19680063
132	0xbe25f195	-0.16205437
133	0x3d675ad3	0.0564831
134	0xbdf8fa47	-0.121571116
135	0xbd67fc36	-0.05663701
136	0x3d8b6f02	0.068082824
137	0x3dea8c9d	0.11452601
138	0x3da86b24	0.082235605
139	0x3f019a31	0.506259
140	0x3e23ee8a	0.16008964
141	0x3d8db5ee	0.06919466
142	0x3ee39786	0.4445154
143	0x3e4818d5	0.19540723
144	0xbe3fbf28	-0.18725264
145	0x3e4e1298	0.2012428
146	0x3e033736	0.1281403
147	0x3e474bd7	0.19462524
148	0x3d895166	0.06704979
149	0xbdcaec58	-0.0990836
150	0x3e02de98	0.12780225
151	0xbe4e8a0a	-0.20169845
152	0xbe3dca37	-0.1853417
153	0x3e90f5bd	0.28312483
154	0x3d7f5f60	0.062346816
155	0x3e641d70	0.22276855
156	0x3d2545f0	0.0403499
157	0x3dbb2201	0.09137345
158	0xbe4e3e7c	-0.20141023
159	0x3dfa940d	0.1223527
160	0x3e059ee5	0.13048895
161	0xbd2c33ce	-0.042041592
162	0x3e027c38	0.12742698
163	0xbc680a03	-0.014162543
164	0x3f05ad4a	0.52217543
165	0xbbc88765	-0.006119656
166	0xbccfd47d	-0.025369877
167	0x3d737df4	0.05944629
168	0xbe476a91	-0.19474246
169	0x3c1e007b	0.009643669
170	0x3d8f788e	0.07005416
171	0xbe010703	-0.12600331
172	0x3e19df2e	0.15026543
173	0x3e698009	0.22802748
174	0xbca9e35a	-0.020738292
175	0xbe315421	-0.17317249
176	0x3e21f805	0.15817268
177	0x3e456664	0.1927734
178	0xbc2fb67a	-0.010724658
179	0xbdc0f998	-0.09422606
180	0x3d9634b7	0.07334273
181	0x3da9bd68	0.082880795
182	0x3ec233cc	0.37930143
183	0x3e2a32d8	0.16620958
184	0x3d2e742f	0.04259127
185	0xbe183e1a	-0.1486744
186	0x3ec0f888	0.37689614
187	0x3e6d4d49	0.23174013
188	0xbb0020b0	-0.0019550733
189	0x3deb573a	0.114912465
190	0xbdc7b625	-0.09751538
191	0xbc337249	-0.010952541
192	0xbdb020ed	-0.0860003
193	0x3df17062	0.117890134
194	0x3e313c3e	0.17308137
195	0xbdb8c3ea	-0.09021743
196	0x3e40ad65	0.18816145
197	0xbed180be	-0.40918535
198	0xbdae511e	-0.085115656
199	0x3de3e81a	0.11128254
200	0xbb8e52eb	-0.0043433807
201	0x3e0be46c	0.13661355
202	0x3e714ea4	0.23565155
203	0x3e1d25f5	0.1534651
204	0xbe8c0f53	-0.2735544
205	0x3cfa96d8	0.030589506
206	0xbd8edc05	-0.06975559
207	0x3ccb5c8d	0.024824405
208	0xbe53ef73	-0.20696811
209	0x3e11de0c	0.1424486
210	0x3e86cb95	0.26327196
211	0x3da6369d	0.081158854
212	0x3e0a4a06	0.135048
213	0x3dd2b809	0.10289008
214	0x3d45a5d3	0.048253845
215	0xbed535bf	-0.41642568
216	0x3de1eb4c	0.110312074
217	0x3e578921	0.21048404
218	0xbda9c2d6	-0.08289115
219	0x3dffded2	0.124936715
220	0x3c6affe9	0.01434324
221	0x3e7f1c44	0.24913126
222	0xbe735fa9	-0.2376696
223	0x3d705c61	0.05868185
224	0xbeca2d77	-0.39487812
225	0xbd875d2b	-0.06609567
226	0x3e812bea	0.25228816
227	0x3d8512c7	0.06497722
228	0xbdde8a3e	-0.10866211
229	0xbe3671d2	-0.17816857
230	0x3d9b6d21	0.07589174
231	0x3e4dc600	0.20095062
232	0x3dc1e3ee	0.09467302
233	0x3e73d654	0.23812228
234	0x3d90591a	0.07048245
235	0x3e32ceda	0.1746172
236	0x3b9992cf	0.0046866904
237	0x3dc782bf	0.09741735
238	0x3e5c5e5b	0.21520369
239	0xbd030821	-0.031990174
240	0x3dbe0a50	0.09279311
241	0x3ee5ab59	0.4485729
242	0x3d8b9bd3	0.068168305
243	0x3e1242c3	0.1428328
244	0xbe2e1251	-0.16999175
245	0x3dd0475b	0.1016986
246	0x3d2063d9	0.039157722
247	0x3eec403f	0.46142766
248	0x3dc0307e	0.09384249
249	0x3d3c105d	0.045914043
250	0x3deab965	0.114611425
251	0x3d515da5	0.051114697
252	0x3e6cdf5c	0.2313208
253	0x3e0d90f5	0.13824828
254	0xbd3ead59	-0.046552036
255	0xbe68846c	-0.22706765

fc3.bias f4 [4]
0	0x3e6f3855	0.23361333
1	0x3e570f42	0.21001914
2	0x3df839db	0.1212041
3	0x3e56904a	0.2095348
