checkpoints/model_dqn_128.pt (torch_old, 46069 bytes, 6 tensors)

fc1.weight f4 [64, 37]
0	0xbd4ac684	-0.049505726
1	0x3d6d6f9d	0.05796777
2	0x3d9eeac2	0.0775962
3	0xbe946af9	-0.28987864
4	0xbdec7076	-0.11544888
5	0x3dd45750	0.10368216
6	0x3e54ae15	0.20769532
7	0x3da67ba3	0.081290506
8	0xbd1ac3e3	-0.03778447
9	0xbc7c01ee	-0.015381319
10	0xbe070433	-0.13185196
11	0xbd3394a1	-0.043842915
12	0x3e4c5d39	0.19957437
13	0xbd79fce8	-0.061032206
14	0x3d214051	0.039367978
15	0x3e5a0717	0.21291767
16	0xbda41cd8	-0.08013314
17	0x3e2b5b1c	0.16733974
18	0xbd8fce8f	-0.0702182
19	0xbd82da97	-0.06389349
20	0x3ebac116	0.36475438
21	0xbd8b42bc	-0.06799838
22	0x3c65f200	0.014034748
23	0xbeb29ba8	-0.3488438
24	0xbfd13cce	-1.6346681
25	0xbdd20431	-0.10254706
26	0x3e2a68e9	0.16641583
27	0xbe12354a	-0.1427814
28	0x3e0dc161	0.138433
29	0x3e5ccb53	0.21561937
30	0xbe4b7589	-0.19869055
31	0x3e0a0f6e	0.13482448
32	0x3d2cf518	0.042225927
33	0x3dd08966	0.10182457
34	0xbdbc28eb	-0.09187492
35	0xbd263d83	-0.040586006
36	0xbc99e690	-0.018786699
37	0x3e0e212a	0.13879839
38	0x3d61b312	0.055102415
39	0x3e1f2139	0.15540017
40	0xbd5f96ee	-0.054587297
41	0xbed75bf9	-0.42062357
42	0xbe32ec9c	-0.17473072
43	0xbca3826e	-0.019959655
44	0xbd5f9bd9	-0.054591987
45	0xbe9596f0	-0.2921672
46	0xbf0f47b1	-0.5596877
47	0x3dd219a9	0.102588005
48	0xbd75332e	-0.059863262
49	0x3e03ebf0	0.12882972
50	0xbdb11372	-0.08646287
51	0x3e3dcbcb	0.18534772
52	0xbe0279df	-0.12741803
53	0x3d6c6630	0.05771464
54	0x3dd13883	0.10215857
55	0x3d2a3886	0.04155781
56	0xbf2cc500	-0.674881
57	0xbe87dadd	-0.26534167
58	0x3dd5f9da	0.10448046
59	0xbe5a5f07	-0.21325313
60	0x3e242879	0.16031064
61	0x3ea75b78	0.32686973
62	0xbe038c24	-0.12846428
63	0xbe325603	-0.17415623
64	0x3e2ec2b3	0.1706646
65	0x3e0b89b4	0.13626748
66	0xbe58bf79	-0.21166791
67	0xbda88dde	-0.08230184
68	0x3e1ea682	0.15493205
69	0x3d50ad82	0.05094672
70	0x3d974ffc	0.07388303
71	0xbe037494	-0.1283744
72	0x3d7bf580	0.061513424
73	0x3d144ae4	0.036204234
74	0x3ee30153	0.44336948
75	0xbeb40d5a	-0.35166436
76	0x3d8ccf3d	0.06875465
77	0xbc9a05b1	-0.018801542
78	0x3c1af030	0.009456679
79	0xbe5bf5d5	-0.21480496
80	0xbe424a5e	-0.18973681
81	0x3ed20f51	0.4102731
82	0xbd7a1584	-0.061055675
83	0xbecc2a6d	-0.39876118
84	0x3d4dfe48	0.05029133
85	0x3d81c44d	0.063362695
86	0xbe7d9cb1	-0.24766804
87	0x3d67890e	0.05652719
88	0xbf852e2e	-1.0404718
89	0xbde2476b	-0.11048778
90	0x3e9dd9a5	0.30830112
91	0x3e3a5b5c	0.18198913
92	0xbe4f3cb4	-0.20238
93	0x3e547297	0.20746838
94	0xbf0552b6	-0.5207933
95	0x3e07ee34	0.13274461
96	0x3e83d534	0.257486
97	0xbe75c35e	-0.24000308
98	0xbeb14cac	-0.34628808
99	0xbe279d33	-0.1636856
100	0x3e38bcfb	0.1804084
101	0x3e0b54d4	0.13606578
102	0xbdeae8cd	-0.114701845
103	0xbe8211dc	-0.2540425
104	0xbe086a78	-0.13321865
105	0xbe69d36d	-0.22834559
106	0xbe93b76e	-0.28850883
107	0x3e3c4280	0.18384743
108	0xbe8b9dd9	-0.27268866
109	0x3b97188b	0.00461108
110	0x3b6db5c4	0.003627167
111	0x3e27b80d	0.16378804
112	0xbf23a90b	-0.63929814
113	0x3e97a264	0.29616082
114	0xbedd2a62	-0.43196398
115	0xbf0a8683	-0.541115
116	0xbe27dc7c	-0.16392702
117	0xbeecd197	-0.46253654
118	0xbe1be64a	-0.15224567
119	0x3e9f68f1	0.3113475
120	0xbef1d5c1	-0.47233394
121	0xbc90ff2d	-0.017699802
122	0xbe73f248	-0.23822892
123	0x3e7946a8	0.2434336
124	0xbf00296d	-0.5006321
125	0xbe8c50d6	-0.27405423
126	0xbd8d4070	-0.06897056
127	0xbdf8c7bb	-0.121474706
128	0xbd5ee1a0	-0.05441439
129	0xbe9c5121	-0.30530646
130	0x3e014ce2	0.12626985
131	0x3db5e511	0.088815816
132	0xbf315f27	-0.69285816
133	0x3dc9d7ae	0.09855591
134	0xbe50e51a	-0.20399895
135	0xbe5347b8	-0.20632827
136	0xbe950b99	-0.2911041
137	0xbf13cb29	-0.5773187
138	0x3e74d1ae	0.23908111
139	0xbd0153a3	-0.031573903
140	0x3db4496f	0.08803069
141	0x3d8e9a26	0.06962995
142	0xbf0dac45	-0.5534099
143	0xbd071c83	-0.032986175
144	0xbe173950	-0.14767957
145	0xbee318d2	-0.44354874
146	0xbe7b2df8	-0.24529254
147	0xbda5a255	-0.08087603
148	0xbd6b47df	-0.05744159
149	0x3c8f5966	0.017498683
150	0xbdd3beb1	-0.10339106
151	0xbd184cf5	-0.037182767
152	0xbd0370a7	-0.032089856
153	0x3ed6f0f3	0.41980705
154	0xbf4c5bb3	-0.7982742
155	0xbe7ad25a	-0.24494305
156	0xbf2dfbb5	-0.679622
157	0xc00498c8	-2.071825
158	0x3d965f07	0.07342344
159	0x3dc8a7ac	0.09797606
160	0xbd0769be	-0.033059828
161	0xbddcd5b7	-0.1078295
162	0xbe5ac723	-0.21365027
163	0xbcc98ed6	-0.024604242
164	0xbd5958c7	-0.05306318
165	0x3c151188	0.009098418
166	0x3d19565f	0.037435886
167	0x3dba8ea8	0.09109241
168	0xbd3f5563	-0.04671229
169	0x3db89378	0.090125024
170	0x3dbc79a0	0.09202886
171	0x3dc8cc04	0.09804538
172	0x3da32a77	0.07967084
173	0x3d9e202e	0.077209815
174	0x3d68b5b0	0.056813896
175	0x3d73d3c3	0.059528124
176	0x3e8fd196	0.2808959
177	0x3e7da3ec	0.24769562
178	0x3dac1639	0.08402676
179	0x3e14b86f	0.14523481
180	0x3e20e197	0.15711056
181	0x3e26cb51	0.16288497
182	0x3e3f740a	0.18696609
183	0xbc652aa3	-0.013987216
184	0x3c9dfae2	0.01928467
185	0x3ce10bee	0.027471509
186	0x3d9bac12	0.07601179
187	0xbd463713	-0.048392367
188	0x3d83eb36	0.06441347
189	0x3e04da3e	0.12973878
190	0x3e2b0137	0.16699682
191	0x3d7ec936	0.06220361
192	0x3cafd314	0.021462955
193	0x3dc65acb	0.09685286
194	0xbe032e4b	-0.12810628
195	0xbd662f91	-0.056197707
196	0x3d9ef2e6	0.07761173
197	0xba28ae25	-0.0006434641
198	0xb97b2d24	-0.00023954042
199	0x3df95cb6	0.12175886
200	0x3c8f39d3	0.017483627
201	0x3dccbeb7	0.099973135
202	0xbd749bca	-0.059718885
203	0x3e4c5869	0.19955601
204	0x3e0770ec	0.1322667
205	0x3e0a4bff	0.13505553
206	0x3df968e2	0.12178208
207	0x3e2ed4e7	0.17073403
208	0x3df7833e	0.12085579
209	0x3ddc758d	0.107646085
210	0x3eb514a0	0.35367298
211	0xbf2e1702	-0.6800386
212	0xbebd478d	-0.3696865
213	0xbf2052ef	-0.62626547
214	0xc00f1e15	-2.236211
215	0x3d875e3a	0.06609769
216	0x3c882231	0.016617866
217	0x3d8e96fe	0.06962393
218	0xbc3feca2	-0.0117141325
219	0xbdb8c783	-0.09022429
220	0x3c1c9978	0.009558074
221	0x3c37744f	0.011197164
222	0x3e98ba6c	0.2982973
223	0xbea5ae09	-0.3235934
224	0x3d27d0b0	0.040970504
225	0xbec4e773	-0.38457832
226	0xbfd8cb38	-1.6937017
227	0xbe144e00	-0.1448288
228	0x3bdf860a	0.0068213986
229	0x3b3f6eda	0.002921036
230	0xbd9628dc	-0.07332012
231	0x3e2a3c77	0.16624628
232	0xbde109d0	-0.109882
233	0x3e2519a7	0.16123067
234	0x3e141e52	0.14464691
235	0x3df98059	0.121826835
236	0x3ec6302b	0.38708624
237	0xbd24d31d	-0.040240396
238	0x3d558f42	0.052138574
239	0xbdd3c74b	-0.103407465
240	0x3dda3db2	0.10656299
241	0x3de43368	0.111426175
242	0x3e77fe10	0.24218011
243	0xbd4b1b94	-0.049586847
244	0xbe2dab37	-0.16959845
245	0xbe7247a3	-0.2366014
246	0x3e216472	0.15760973
247	0x3d65d443	0.05611063
248	0xbe982f40	-0.2972355
249	0xbd4415a6	-0.047872208
250	0xbe5a70ce	-0.21332094
251	0x3dcc86df	0.09986662
252	0xbe2f93e3	-0.17146258
253	0x39270d38	0.00015931285
254	0xbdd0b548	-0.10190827
255	0x3e33fa20	0.17575884

fc1.bias f4 [64]
0	0x3e18e984	0.14932829
1	0xbd70e8c2	-0.058815725
2	0xbd1274f7	-0.035756078
3	0xbd5e7e80	-0.05431986
4	0x3e7b703f	0.24554537
5	0x3cbead20	0.023275912
6	0xbda672f9	-0.08127398
7	0x3d8681aa	0.065677
8	0xbbabac15	-0.0052390196
9	0xbe8c549e	-0.27408308
10	0x3cfbc075	0.03073142
11	0x3e6593f6	0.22419724
12	0x3d50ef6f	0.05100959
13	0x3e4d7dbd	0.20067497
14	0xbda700fb	-0.08154484
15	0xbdae7c0c	-0.08519754
16	0x3d64ee8b	0.055891555
17	0xbd6187fc	-0.055061325
18	0xbb8c2e76	-0.0042779995
19	0xbe521990	-0.20517564
20	0xbe0e2120	-0.13879824
21	0x3d1fc763	0.03900851
22	0x3da75d3d	0.08172081
23	0xbcd5835c	-0.026063614
24	0xbdd67510	-0.10471547
25	0x3e6b4610	0.22975945
26	0xbd026a94	-0.031839922
27	0xbc142215	-0.009041329
28	0x3e079e20	0.13243914
29	0x3dd94fe3	0.1061094
30	0xbd97e067	-0.07415848
31	0xbd265600	-0.04060936
32	0x3d2d47fe	0.042304985
33	0xbcf0be63	-0.029387658
34	0xbe2aaeb7	-0.16668211
35	0x3d82bd02	0.06383707
36	0xbd4668f9	-0.048439953
37	0x3de0d075	0.1097726
38	0xbe16d918	-0.14731252
39	0xbe5fbd46	-0.21849546
40	0xbde0d559	-0.10978193
41	0xbd9b99df	-0.07597708
42	0xbc8ac64e	-0.016940262
43	0x3e5e9310	0.21735787
44	0xbd80a99d	-0.06282351
45	0xbdff5bc5	-0.124686755
46	0x3bd0d64a	0.0063732015
47	0xbe8a5cb5	-0.27023855
48	0xbe3b7e73	-0.18309955
49	0xbd3d35d4	-0.046193913
50	0xbe5b25fe	-0.21401212
51	0x3e8490b4	0.2589165
52	0xbe1c0052	-0.15234497
53	0xbe2b04a3	-0.16700988
54	0xbe1fc5c5	-0.15602787
55	0x3d322809	0.04349521
56	0x3e2293a9	0.1587664
57	0xbd45c970	-0.04828781
58	0xbe140a6b	-0.14457099
59	0xbdd18d5f	-0.102320425
60	0xbb89a91f	-0.004201069
61	0x3e06984c	0.13144034
62	0x3ce260a4	0.027633972
63	0x3dbdab84	0.0926123

fc2.weight f4 [128, 64]
0	0x3e3789cb	0.17923658
1	0xbd80c29b	-0.06287118
2	0xbee168bf	-0.44025227
3	0x3cddb5d0	0.027064234
4	0xbcaa4795	-0.020786086
5	0xbef05a29	-0.46943787
6	0xbe76441d	-0.2404942
7	0xbe30844f	-0.17237972
8	0x3d996837	0.074905805
9	0xbefeea4a	-0.49788123
10	0xbf039637	-0.51401085
11	0xbea3fb2f	-0.32027575
12	0xbf2cd7b5	-0.6751664
13	0x3cdcc0d5	0.026947418
14	0xbd82bb85	-0.06383423
15	0xbeb4e5d7	-0.35331604
16	0xbf15b39c	-0.5847719
17	0xbf130c66	-0.57440794
18	0x3db24d06	0.08706097
19	0xbe72605c	-0.2366957
20	0xbf051973	-0.5199196
21	0x3cccbcc8	0.024992362
22	0x3ea601dc	0.32423294
23	0xbedcbea7	-0.43114206
24	0xbe803697	-0.2504165
25	0xbf0c7d1c	-0.548784
26	0x3ecd2e6e	0.40074486
27	0xbded78bd	-0.115952946
28	0xbe03be01	-0.1286545
29	0xbf187499	-0.59552914
30	0xbeb020b1	-0.34399942
31	0xbef98ac4	-0.48738682
32	0xbf125600	-0.57162476
33	0xbef34f16	-0.47521275
34	0xbe9c5a51	-0.30537656
35	0x3d777e43	0.060423147
36	0xbe8e77bf	-0.27825734
37	0x3d201637	0.039083686
38	0x3db30dad	0.08742843
39	0xbf5d26cd	-0.8638733
40	0x3e86dff2	0.26342732
41	0xbeab66b2	-0.33476788
42	0xbe91ecdc	-0.28501022
43	0xbf4beb8c	-0.7965629
44	0x3e6fead7	0.23429428
45	0x3dd765ef	0.10517489
46	0xbe40c7bd	-0.18826194
47	0xbebca1b8	-0.36842132
48	0xbe7c5971	-0.24643494
49	0xbe3f8ede	-0.18706843
50	0xba3d31ac	-0.00072171795
51	0x3f252d5d	0.64522344
52	0xbf1d85b8	-0.61532164
53	0xbc648612	-0.0139479805
54	0xbf705cf8	-0.9389186
55	0x3e410170	0.18848205
56	0x3b62bbe9	0.0034596866
57	0xbf1c3e8e	-0.6103295
58	0x3e14ffd0	0.1455071
59	0xbe3a7456	-0.18208441
60	0x3e33130e	0.17487738
61	0xbf1fe0f5	-0.6245263
62	0x3e3aeab7	0.18253599
63	0x3e4d166c	0.20028085
64	0x3ddecb09	0.1087857
65	0x3ea65bf5	0.32492033
66	0xbf0b98c8	-0.5453
67	0xbecbb80d	-0.39788857
68	0x3d7f6129	0.06234852
69	0x3eb84374	0.35988963
70	0xbe10d387	-0.14143191
71	0x3e978e7a	0.29600888
72	0x3d938d26	0.07204656
73	0xbda65b83	-0.08122923
74	0x3d870c94	0.06594196
75	0xbd0efec5	-0.034910936
76	0xbc87b561	-0.01656598
77	0x3cb399b6	0.021923881
78	0xbee5b0ca	-0.44861442
79	0x3dc075a3	0.093974374
80	0x3e95b4fc	0.29239643
81	0x3d9bc8f0	0.07606685
82	0xbd922568	-0.07136041
83	0xbe7853ca	-0.24250713
84	0xbe2b8b41	-0.1675234
85	0xbf3d5bd3	-0.7396824
86	0xbe12165d	-0.14266343
87	0xbe3bcc28	-0.18339598
88	0xbe92cc9b	-0.28671727
89	0xbcddab5b	-0.027059248
90	0xbe43f244	-0.19135386
91	0xbe0d8f22	-0.13824132
92	0x3dd73244	0.10507634
93	0xbe0b8189	-0.13623632
94	0x3e2d96c4	0.16952044
95	0xbe4f58bb	-0.20248692
96	0xbeac1256	-0.3360774
97	0x3c8ae069	0.01695271
98	0xbe40be34	-0.18822557
99	0xbdee07f6	-0.11622612
100	0xbee653cc	-0.44985807
101	0xbb81fc36	-0.0039668335
102	0x3ead40d8	0.33838534
103	0xbe630289	-0.22168936
104	0xbef2fff2	-0.47460896
105	0x3db70354	0.08936182
106	0x3eed4f43	0.46349534
107	0xbd33e535	-0.04391976
108	0x3e81b3bb	0.25332436
109	0xbe55ba36	-0.20871815
110	0xbea5f228	-0.32411313
111	0x3e1a6cdd	0.1508059
112	0xbf2473d6	-0.6423925
113	0x3d425a02	0.04744912
114	0xbe1319e6	-0.14365348
115	0x3e849561	0.25895217
116	0xbe1e8aa1	-0.1548257
117	0xbe34e31a	-0.17664757
118	0x3d918da4	0.07107094
119	0xbe29f645	-0.1659785
120	0x3dae99fd	0.08525465
121	0xbe32504d	-0.17413445
122	0x3cea621d	0.028611237
123	0x3dc94dee	0.09829317
124	0xbf07861e	-0.5293902
125	0x3df99768	0.121870816
126	0xbe9d53d2	-0.30728012
127	0xbf136e6a	-0.57590353
128	0xbe2327a1	-0.15933086
129	0xbe5f175b	-0.21786253
130	0xbd4a2768	-0.049353987
131	0xbdf65a7f	-0.120289795
132	0x3c248cca	0.010043332
133	0x3ddc93c9	0.10770375
134	0xbe06c84b	-0.13162343
135	0xbc46f51f	-0.012143402
136	0x3d24a370	0.04019493
137	0xbd96142a	-0.07328065
138	0x3d6dd0a2	0.058060296
139	0x3c10049f	0.008790164
140	0xbcd1ba55	-0.025601545
141	0x3e245de8	0.16051447
142	0x3d142d0c	0.036175773
143	0x3d82d509	0.063882895
144	0xbdffb29b	-0.12485238
145	0x3de5ccb0	0.11220682
146	0x3d64e119	0.055878732
147	0xbe510fbc	-0.20416158
148	0xbe257c95	-0.16160806
149	0x3c275445	0.0102129625
150	0xbd7d1940	-0.06179166
151	0x3d2e8e28	0.04261604
152	0xbd2c70b8	-0.042099684
153	0x3dec386d	0.115342
154	0xbb35041f	-0.0027620865
155	0x3dbd79be	0.09251736
156	0x3d7360f8	0.05941865
157	0x3e54f611	0.20796992
158	0xbd22cf80	-0.03974867
159	0x3c0163f6	0.007897368
160	0x3c7ea109	0.015541323
161	0xbdd38cd5	-0.10329596
162	0xbe181aa0	-0.14853907
163	0x3dd8d112	0.10586752
164	0x3d4ed378	0.05049464
165	0x3e085ea8	0.13317358
166	0xbd1acb4c	-0.037791535
167	0xbc08a0c3	-0.00833911
168	0x3d6afae3	0.05736817
169	0xbd53fd26	-0.051755093
170	0xbe7d8a6e	-0.24759838
171	0xbd86eba5	-0.065879144
172	0xbe669112	-0.22516277
173	0x3d3de139	0.046357367
174	0xbd1276f9	-0.035757992
175	0xbb79fec5	-0.003814624
176	0x3d34aa77	0.04410788
177	0xbe897f06	-0.26854724
178	0xbd34a29e	-0.044100396
179	0xbdac6b28	-0.08418876
180	0xbe2926b9	-0.16518678
181	0xbe6ac7f6	-0.22927842
182	0xbd8c0de0	-0.06838584
183	0xbe2bd327	-0.16779767
184	0xbc1e4130	-0.009659097
185	0xbdefe256	-0.11713092
186	0x3d2651b2	0.040605254
187	0x3e186a9e	0.14884421
188	0xbd4e1567	-0.05031338
189	0xbd067199	-0.03282318
190	0xbdca1ac3	-0.09868386
191	0xbd7cb4b5	-0.061695773
192	0xbe2da784	-0.16958433
193	0xbf0db18b	-0.55349034
194	0x3e1d4de1	0.1536174
195	0xbdde0742	-0.10841228
196	0xbf0d2d8e	-0.55147636
197	0x3e3837da	0.17990056
198	0xbe6e18f6	-0.2325171
199	0x3de051d1	0.10953105
200	0xbefad8db	-0.48993573
201	0x3bb388a8	0.005478937
202	0x3d6b7d67	0.05749264
203	0x3e9627d8	0.29327273
204	0x3ec15d1f	0.37766358
205	0x3e2c9979	0.1685542
206	0xbc7988d7	-0.015230379
207	0xbc8ca70f	-0.017169503
208	0xbe2fcb7c	-0.17167467
209	0xbe98e518	-0.29862285
210	0x3dc4f4a6	0.096169755
211	0x3e89d3a4	0.2691928
212	0x3e0fc19f	0.14038704
213	0x3ec2350d	0.379311
214	0xbc03f3c6	-0.008053726
215	0x3db5da7a	0.08879562
216	0x3e5ecc9f	0.21757744
217	0x3cd5c819	0.02609639
218	0xbe527d61	-0.20555641
219	0x3da935b1	0.08262194
220	0xbe7aa15a	-0.24475613
221	0xbeadd951	-0.33954862
222	0x3e7ff6bc	0.24996465
223	0xbe6bb304	-0.23017508
224	0xbe0e579b	-0.13900606
225	0x3ae697ee	0.0017592886
226	0x3e4184fb	0.18898384
227	0x3e606e30	0.21917033
228	0xbe6596c9	-0.22420801
229	0x3de1cc22	0.11025263
230	0x3cb084d9	0.021547722
231	0x3e33d94c	0.17563361
232	0xbe7e92a4	-0.24860626
233	0x3eb3605c	0.35034454
234	0xbede9dc1	-0.43479732
235	0x3e082451	0.13295104
236	0x3da5ce94	0.08096042
237	0x3d5fd503	0.054646503
238	0x3d0f0230	0.034914196
239	0x3d55bcd7	0.052182045
240	0xbd8b98e4	-0.06816271
241	0x3dd4df0d	0.10394106
242	0xbda6448e	-0.081185445
243	0x3e40a0b9	0.18811311
244	0x3c20928e	0.009800566
245	0xbc93ff24	-0.018065996
246	0xbe38c285	-0.18042953
247	0x3e323ffb	0.17407219
248	0xbe8a7ba2	-0.2704745
249	0xbe60f431	-0.21968152
250	0x3dc0deb2	0.09417476
251	0x3e5229d3	0.20523767
252	0xbeb803af	-0.3594031
253	0x3dcb82ee	0.09937082
254	0x3e16d4c9	0.14729609
255	0xbe953e1c	-0.29148948

fc2.bias f4 [128]
0	0x3c50d3cf	0.012745812
1	0xbe38e871	-0.1805742
2	0x3f23a3a5	0.63921577
3	0xbe0934ca	-0.13399044
4	0xbde0161b	-0.10941716
5	0x3f3d6943	0.7398874
6	0xbd3ec980	-0.046578884
7	0xbdf41201	-0.119174965
8	0xbe091426	-0.13386592
9	0x3f4a78c9	0.79090554
10	0x3eae2a00	0.34016418
11	0xbdc27fad	-0.094970085
12	0xbd77c5a7	-0.06049123
13	0xbe77f2f7	-0.24213777
14	0xbb6edb97	-0.0036446804
15	0x3d9b4dcd	0.07583199
16	0xbd276c76	-0.04087492
17	0xbccacfe0	-0.024757326
18	0x3f5ae653	0.85507697
19	0x3e0deb65	0.13859327
20	0xbdef9fd7	-0.11700409
21	0xbde1309f	-0.10995602
22	0xbd1659f3	-0.036706876
23	0xbe3facd3	-0.18718271
24	0xbdbc8a02	-0.092060104
25	0xbdd10008	-0.10205084
26	0x3cb687ca	0.022281546
27	0xbde4a2e7	-0.11163884
28	0x3d4155da	0.047201015
29	0x3f4cc2de	0.79984844
30	0xbe7cd5e7	-0.24690972
31	0xbd2f6ee0	-0.042830348
32	0x3dc2ed06	0.09517865
33	0x3d1c72fa	0.038195588
34	0x3f33f63d	0.70297605
35	0xbe16623b	-0.1468591
36	0xbe0f5098	-0.13995588
37	0xbd6bd099	-0.05757198
38	0xbd76311d	-0.06010543
39	0x3e831d9e	0.25608534
40	0x3de771e7	0.11301022
41	0x3d9f15fa	0.077678636
42	0x3ed66844	0.41876423
43	0x3d1a2162	0.037629493
44	0xbe3742b2	-0.17896536
45	0xbd3fb52d	-0.046803642
46	0xbe0bb615	-0.13643678
47	0xbe03f0d5	-0.12884839
48	0xbd84b27c	-0.06479356
49	0x3e24318c	0.16034526
50	0xbcc5c666	-0.024142455
51	0x3d117304	0.035510078
52	0x3f28da2b	0.659579
53	0xbb093830	-0.0020938031
54	0x3d8ed171	0.069735415
55	0x3dadaf57	0.08480709
56	0x3dca6af2	0.098836794
57	0xbd4832ba	-0.0488765
58	0xbc6c56da	-0.014425004
59	0xbe46d507	-0.19417201
60	0xbdc0b202	-0.09408952
61	0x3e1dfd50	0.15428662
62	0xbe001ec7	-0.1251174
63	0xbe308d9e	-0.17241523
64	0xbde8f2b7	-0.11374419
65	0x3f358926	0.70912397
66	0x3ee0d1cf	0.4391007
67	0xbe64de75	-0.22350486
68	0xbbfb3ee2	-0.0076674083
69	0x3e07c385	0.13258179
70	0xbe815470	-0.25259733
71	0x3f37a50c	0.71736217
72	0xbda9ef69	-0.08297617
73	0x3e3f85aa	0.18703333
74	0x3e568f84	0.20953184
75	0x3da0c125	0.078493394
76	0xbd0554e2	-0.032551654
77	0xbbf238c1	-0.0073920195
78	0xbe5fa530	-0.21840358
79	0xbdaa16b4	-0.083051115
80	0xbe5948ff	-0.21219252
81	0x3f07b222	0.53006184
82	0xbd3febf1	-0.04685587
83	0x3ee1adfd	0.44078055
84	0x3c9b45e4	0.018954225
85	0x3f41b8ee	0.75672805
86	0x3f22667d	0.63437635
87	0xbbcca7eb	-0.0062456033
88	0xbe42ef86	-0.19036683
89	0x3ceedfa1	0.029159369
90	0xbe30f125	-0.1727949
91	0x3f05373e	0.5203742
92	0x3f03647b	0.51325196
93	0x3dcabee9	0.098996945
94	0xbebf7cce	-0.37399906
95	0xbdf231a1	-0.11825872
96	0xbe87cadb	-0.26521954
97	0xbc961ff5	-0.018325785
98	0xbbbef914	-0.0058280323
99	0xbe22b4dd	-0.15889306
100	0xbe4573e9	-0.19282497
101	0x3d067916	0.03283032
102	0x3e22cbe8	0.15898097
103	0xbde47f4d	-0.11157093
104	0xbb32b6ce	-0.0027269605
105	0x3e62073c	0.22073072
106	0xbcb60f34	-0.022224046
107	0xbd0d5f56	-0.034514748
108	0xbd821f73	-0.06353655
109	0x3c3319d0	0.010931447
110	0xbe61fd92	-0.22069386
111	0xbdf8f295	-0.12155644
112	0x3e9016cd	0.28142396
113	0x3e16bffb	0.14721672
114	0x3c923a2f	0.01785001
115	0x3edb5161	0.42835525
116	0xbd8a6cd0	-0.067590356
117	0x3d7a9030	0.061172664
118	0x3ca5abb2	0.020223472
119	0xbd1a166d	-0.037619043
120	0x3f19f1cd	0.60134584
121	0x3dc80746	0.09767012
122	0x3f55223d	0.8325537
123	0xbe9fee1f	-0.3123636
124	0xbe189a51	-0.14902617
125	0x3e6e520a	0.23273483
126	0xbd80c24a	-0.06287058
127	0xbdfd1def	-0.12359225

fc3.weight f4 [4, 128]
0	0xbf0189d6	-0.50600946
1	0xbd9c3cc1	-0.076287754
2	0x3e2483c5	0.16065891
3	0x3e070286	0.13184556
4	0xbe69623a	-0.22791377
5	0x3e33a552	0.17543533
6	0xbe746cfe	-0.23869702
7	0xbdf55686	-0.11979394
8	0xbe98058a	-0.29691726
9	0x3e688421	0.22706653
10	0x3dde8821	0.10865808
11	0x3dda6ca0	0.1066525
12	0xbe2d2f89	-0.16912664
13	0x3e24647d	0.16053958
14	0xbe3c961c	-0.18416637
15	0x3e010656	0.12600073
16	0x3e7d04b4	0.24708825
17	0x3d327726	0.04357066
18	0x3e8cca6d	0.2749819
19	0x3dbf3643	0.093365215
20	0xbd41fb93	-0.04735906
21	0xbc694237	-0.014236978
22	0xbe082a30	-0.13297343
23	0xbe4a53b7	-0.19758497
24	0x3e34026c	0.17579049
25	0x3f099aaa	0.53751624
26	0x3e0be1b2	0.13660315
27	0xbd80b384	-0.0628424
28	0x3e1be235	0.1522301
29	0x3e68f20e	0.22748587
30	0xbde30ba6	-0.11086206
31	0x3e09a6d4	0.13442546
32	0x3d1abee0	0.03777969
33	0xbe1a7bd8	-0.15086305
34	0x3e585ed2	0.21129921
35	0x3de289d2	0.110614434
36	0x3d7e667e	0.062109463
37	0x3e0d9d01	0.13829423
38	0xbe6894b5	-0.22712977
39	0x3dc034a4	0.093850404
40	0x3e10503e	0.1409311
41	0x3e0682f2	0.13135889
42	0x3d872a8d	0.06599913
43	0xbdf21571	-0.11820496
44	0xbbf5d1ca	-0.0075018154
45	0xbd4849ce	-0.04889851
46	0xbf0913b8	-0.53545713
47	0xbcc44d16	-0.023962539
48	0xbce9cb24	-0.028539248
49	0x3e6a5d92	0.22887257
50	0x3e1cff11	0.15331675
51	0xbf2fc621	-0.68661696
52	0x3e370da9	0.17876305
53	0xbe5c0dbf	-0.21489619
54	0x3e5b1960	0.21396399
55	0x3e53b10e	0.2067301
56	0xbd8ec329	-0.069708176
57	0x3d03ebe7	0.032207396
58	0xbe0c3822	-0.13693288
59	0xbf069f5a	-0.525869
60	0xbe350c40	-0.17680454
61	0x3e04009e	0.1289086
62	0xbc717681	-0.014737726
63	0xbdb4228a	-0.0879565
64	0x3d9eaf80	0.07748318
65	0x3e4184f6	0.18898377
66	0x3e17fb9d	0.14842077
67	0xbf431d89	-0.7621694
68	0x3eceb184	0.4036981
69	0xbe9ae49d	-0.30252543
70	0xbe5223d3	-0.20521478
71	0x3e3fee57	0.18743263
72	0x3d28ddfc	0.041227326
73	0x3e7e2711	0.2481959
74	0x3e1b2847	0.15152083
75	0x3d97c342	0.07410289
76	0x3d55fd49	0.052243505
77	0xbdafeceb	-0.085901104
78	0x3d9e3504	0.07724956
79	0x3d097a06	0.033563636
80	0xbe84b827	-0.25921747
81	0x3e3e5fb5	0.18591197
82	0x3e129234	0.14313585
83	0x3d81d45e	0.06339334
84	0x3d81f19b	0.06344911
85	0x3e2fe102	0.17175677
86	0x3e122ec7	0.14275657
87	0xbf09d7fb	-0.53845185
88	0x3eaeb078	0.3411901
89	0x3e5526d3	0.20815592
90	0xbe1099c8	-0.14121163
91	0x3d8e4daf	0.06948411
92	0x3de051d9	0.10953111
93	0x3ee14964	0.44001305
94	0xbdc6b333	-0.09702148
95	0x3dacb86c	0.08433613
96	0x3e16c252	0.14722565
97	0xbe43f716	-0.19137225
98	0x3de29548	0.110636294
99	0x3d4cf63f	0.050039526
100	0x3e1e9d91	0.15489794
101	0xbe38efed	-0.18060274
102	0x3e131dc7	0.14366828
103	0x3f166f05	0.5876315
104	0xbd87a8e6	-0.06624012
105	0x3eaed12a	0.34143955
106	0x3e5574e6	0.20845374
107	0x3c94d9d8	0.018170282
108	0xbdfd3145	-0.12362913
109	0x3e830093	0.25586376
110	0xbea2fa6a	-0.31831676
111	0xbdf7ec86	-0.1210566
112	0x3dd5551a	0.104166225
113	0xbf0b44ff	-0.54402155
114	0x3d215a24	0.039392605
115	0x3e5af7fe	0.21383664
116	0xbea4db0e	-0.32198375
117	0x3e176267	0.14783631
118	0x3e6d2b97	0.2316116
119	0x3e206b0c	0.15665835
120	0x3e1ed637	0.15511404
121	0x3df32297	0.11871832
122	0x3e732a0f	0.23746513
123	0xbe6ff8be	-0.23434731
124	0xbdcee62d	-0.10102496
125	0x3da8feee	0.08251749
126	0xbe568f0d	-0.20953007
127	0xbecabb8b	-0.3959621
128	0x3e1bf978	0.15231884
129	0xbec4e360	-0.38454723
130	0x3dc92ee7	0.09823399
131	0x3d165136	0.036698543
132	0x3e78d456	0.2429975
133	0x3e58738a	0.21137825
134	0xbd164182	-0.036683567
135	0xbd8b70bc	-0.06808612
136	0x3df239c5	0.11827425
137	0x3e7cdb68	0.24693072
138	0x3e0a7837	0.13522421
139	0x3e873c6d	0.2641329
140	0x3e177279	0.14789762
141	0xbe3a243f	-0.1817789
142	0x3dd0f474	0.10202876
143	0x3e11123c	0.14167112
144	0xbe2944c6	-0.16530141
145	0xbe20764b	-0.15670125
146	0x3e4fce61	0.20293571
147	0x3e20c56f	0.15700315
148	0x3c20f0d1	0.00982304
149	0xbe5dbbac	-0.21653622
150	0x3dbefd9c	0.09325716
151	0xbdc676e1	-0.09690643
152	0xbe21e10b	-0.15808503
153	0x3e8fc2ce	0.28078312
154	0x3d28a53b	0.0411732
155	0x3e04deab	0.12975566
156	0x3e37df0d	0.17956181
157	0x3e2a2f09	0.16619505
158	0xbd42616e	-0.047456197
159	0x3e8487b0	0.2588477
160	0x3da8b9f8	0.08238596
161	0x3bed1083	0.0072346344
162	0x3e67d817	0.22641025
163	0xbe8b0c7f	-0.2715797
164	0x3e4cf68e	0.20015928
165	0x3da3008c	0.07959089
166	0x3c9aa453	0.018877184
167	0x3d872004	0.06597903
168	0xbd7eb0c2	-0.062180288
169	0x3c4a4744	0.012346093
170	0x3df9e6ac	0.122022
171	0xbf181ad7	-0.59415954
172	0xbdf7eead	-0.12106071
173	0x3e020e5c	0.1270079
174	0xbce3893e	-0.027775403
175	0xbe6704e0	-0.22560453
176	0xbce1884b	-0.02753081
177	0x3d075db8	0.03304836
178	0x3e5765e7	0.21034966
179	0xbdf9dc6a	-0.12200244
180	0x3e44ab7e	0.19206044
181	0x3e178765	0.14797743
182	0x3eb9cf8b	0.36291155
183	0x3e724470	0.2365892
184	0x3da81b49	0.08208329
185	0x3e9b8538	0.30375075
186	0x3eb0a618	0.3450172
187	0x3e8a8dd1	0.27061322
188	0xbdfcda8d	-0.12346373
189	0x3e4233f0	0.18965125
190	0xbe629059	-0.22125377
191	0xbe4aa793	-0.19790487
192	0x3e8227ef	0.25421092
193	0x3e49bc2b	0.19700687
194	0x3e2bc138	0.16772926
195	0xbedf0eb2	-0.435659
196	0x3e9e00e4	0.30860054
197	0xbeabaae3	-0.33528814
198	0x3e060958	0.13089502
199	0x3e7a97fe	0.24472043
200	0xbde1a09d	-0.11016963
201	0x3e2a47e1	0.16628982
202	0x3e71f269	0.23627628
203	0x3d8f2765	0.06989936
204	0x3e926fef	0.28601024
205	0xbdee5758	-0.11637753
206	0xbdcdaa18	-0.100422084
207	0x3d1b81d7	0.03796562
208	0xbb9143bc	-0.0044331234
209	0x3e2f220a	0.17102829
210	0x3de3f51f	0.111307375
211	0x3d8349b8	0.06410545
212	0xbd3ccdc7	-0.046094682
213	0x3e895b0c	0.26827276
214	0x3e014bf2	0.12626627
215	0xbf4c0128	-0.79689264
216	0x3eaaee94	0.33385146
217	0x3e460f4e	0.19341776
218	0xbde9d519	-0.11417598
219	0x3e9f565d	0.31120577
220	0x3d6df393	0.05809362
221	0x3ebd0632	0.3691879
222	0xbe402f1c	-0.18767971
223	0xbc89b89c	-0.016811661
224	0xbe828326	-0.25490683
225	0xbe2ed69a	-0.17074051
226	0x3eae7258	0.34071612
227	0x3dc9d650	0.0985533
228	0x3e0a17c0	0.13485622
229	0xbe99cbe7	-0.30038378
230	0x3e7a7083	0.24456982
231	0x3e93e1f0	0.28883314
232	0xbd3170ea	-0.043320574
233	0x3e53e56f	0.2069299
234	0x3e8c9471	0.27457002
235	0x3e123dc2	0.14281371
236	0xbe52546a	-0.20540014
237	0x3e0e8daf	0.13921236
238	0x3bf8e201	0.007595301
239	0xbe17a882	-0.14810374
240	0x3e73f980	0.23825645
241	0xbe9496ef	-0.29021403
242	0x3ddc1f3e	0.107481465
243	0x3e3b31a1	0.1828065
244	0xbcb07fa7	-0.021545244
245	0x3e2b1458	0.1670698
246	0x3e66e55a	0.22548428
247	0x3eaeea47	0.34163114
248	0x3e386c63	0.18010096
249	0x3d435ab9	0.04769394
250	0x3e630a79	0.22171964
251	0x3d23a628	0.03995338
252	0x3e10a2c4	0.1412459
253	0x3b801744	0.0039090235
254	0x3ea8c582	0.32963187
255	0x3e08cd1b	0.13359492

fc3.bias f4 [4]
0	0x3f276ff8	0.65405226
1	0x3edb5da6	0.42844886
2	0x3eb3855b	0.3506268
3	0x3eed5407	0.4635317
